src/GraphSAGE_model_weights_4_class.pth (torch, 10228 bytes, 9 tensors)

sage_conv.lin_l.weight f4 [16, 9]
000000 06 1e ce be 97 97 f2 be 47 a7 fb 3c b0 0f 02 bf
       -0.4025728 -0.4738128 0.030719412 -0.5080519
000010 5e 26 a9 bd 7c b9 73 bf d5 24 ba 3e f4 68 f0 bd
       -0.08259271 -0.952049 0.36356226 -0.11738768
000020 fd 46 55 bf f6 11 36 3d 43 29 72 3e 7f 77 89 be
       -0.83311445 0.044450723 0.23648553 -0.2684898
000030 f6 17 ba 3d 8b ec 39 be 06 f5 7f 3e 52 34 8c 3e
       0.090866014 -0.1815664 0.24995813 0.27383667
000040 10 ea 80 be 00 bb 67 bc 3e de 6d 3e 8e 40 64 3c
       -0.25178576 -0.014143705 0.2322931 0.013931407
000050 83 85 7f 3e 47 a1 6e 3d 01 de 46 3f d6 01 08 c0
       0.24953274 0.058259275 0.776825 -2.125112
000060 91 91 13 bf 68 3d 95 3d 53 a7 2a 3f 26 b6 84 3e
       -0.5764399 0.07287103 0.66661566 0.25920218
000070 bc 43 98 be 3e 47 71 be 82 51 a4 be bb c8 2a 3e
       -0.29739177 -0.23562333 -0.32093436 0.16678135
000080 fb d9 d1 3d e4 5b 97 be a6 c1 15 3e c3 66 24 be
       0.102466546 -0.29562294 0.14624652 -0.16054825
000090 8c b3 7f be 14 51 a2 bd 22 ad b8 3d b8 fe 59 3d
       -0.24970835 -0.07925621 0.090173975 0.053221434
0000a0 05 bd 7e 3e 7d 56 b3 bf 53 bc 93 3f 60 eb 00 bf
       0.24876793 -1.4010769 1.1541847 -0.50359154
0000b0 be a1 29 bf 89 57 88 3e e1 8d e8 bd 68 96 5e bc
       -0.66262424 0.26629284 -0.11355186 -0.013585664
0000c0 5b 2c db 3c 31 62 40 bf f8 8e 4e 40 42 75 47 bf
       0.026754549 -0.7514983 3.2274761 -0.77913296
0000d0 b6 9a e5 3e 69 db 99 3e 54 4b 39 be b3 9d c2 be
       0.44844598 0.3005021 -0.18095142 -0.3801094
0000e0 fe cb 13 be 0e 63 f6 bd 55 ad 9c 3d 1a 7d 37 bf
       -0.14433286 -0.12030612 0.07650248 -0.71675265
0000f0 e4 98 dc 3e 18 ea 89 be ff 7c e9 be b9 97 eb bc
       0.43085396 -0.26936412 -0.45603177 -0.02875887
000100 b7 a4 5f be f6 0e 76 3e d7 30 49 be 7f 5f 8d 3f
       -0.21840177 0.24029145 -0.19647537 1.1044768
000110 31 b3 27 c0 a5 30 d2 3f 69 49 d1 be 64 fc 0b bf
       -2.620312 1.6421095 -0.4087632 -0.5468199
000120 88 fc 36 be a6 f7 5b be 4f 95 0f bd 5d 74 d5 bd
       -0.1786977 -0.21481189 -0.0350545 -0.10422585
000130 e5 cd b4 3e 2b 53 b6 bf 46 72 77 bf cc 7c 94 3e
       0.35313335 -1.4244131 -0.9665874 0.29001462
000140 36 5a ad 3e 81 e3 c6 be 20 3e d7 3d f6 80 7a be
       0.33857888 -0.38845447 0.10509896 -0.24463257
000150 a1 9a 65 bd 49 4f 48 3e bd 10 b5 be 6e 29 a0 be
       -0.05605567 0.19561495 -0.35364333 -0.31281608
000160 39 0d b8 be cb fc 86 bd b0 cb 89 bd 80 0d 80 bc
       -0.35947588 -0.06591185 -0.067283034 -0.015631437
000170 93 81 41 be db 3a 65 3e 68 75 9e be b0 25 f8 bd
       -0.18897085 0.22385733 -0.3094895 -0.12116563
000180 20 0c a5 3e 00 e1 0c be f6 e2 03 3d 5b 71 b1 bd
       0.32235813 -0.13757706 0.03219887 -0.08664199
000190 5e 18 b0 be 76 49 84 3d 60 cf fd bd 63 e3 a0 3e
       -0.3439359 0.06459324 -0.12393069 0.31423482
0001a0 45 8d af bf e3 6c ac be 63 ba 8f be 2b 74 c3 3d
       -1.3714987 -0.33676824 -0.2807189 0.09543642
0001b0 04 e7 a4 be cb bd 63 be 0b 4a c1 bd fa 0f a0 be
       -0.322075 -0.22240369 -0.09437951 -0.3126219
0001c0 e3 70 64 be 3e d8 1b be e0 e5 2e 3d 8b 5d 33 3d
       -0.22308688 -0.15219209 0.042699695 0.04379038
0001d0 14 36 89 be 86 f8 6a be 53 58 db be f7 50 ae be
       -0.2679907 -0.22946367 -0.42840824 -0.34046146
0001e0 f0 56 bf 3d 15 40 db 3d 18 4d 81 bf 89 88 9b 3e
       0.09342754 0.10705582 -1.0101652 0.30377606
0001f0 5d 1c 7b be 2d 99 2a bf 2f f7 e2 3d 59 b3 b5 3d
       -0.24522538 -0.6663998 0.11082303 0.088720985
000200 05 d4 c8 be bb 3f 9b bd 81 ed 08 3f 60 46 0a c0
       -0.39224258 -0.07580515 0.534874 -2.1605453
000210 c2 eb b0 bf bd c6 27 3e 84 77 0d 3f 9d 74 d9 bd
       -1.3821948 0.16384406 0.5526049 -0.10617945
000220 e6 51 3b 3e 67 17 86 be 85 b0 d0 bd 35 d8 ce 3d
       0.1829296 -0.2618973 -0.101899184 0.10099832
000230 a4 57 69 bf 51 d5 80 3f 14 34 10 bf 1f 2c 29 bf
       -0.91149354 1.0065099 -0.56329465 -0.6608295

sage_conv.lin_l.bias f4 [16]
000000 56 37 2d be 36 0e 91 bd 02 f1 8e be 4b 41 5f be
       -0.1691564 -0.07082789 -0.2791825 -0.21802251
000010 4a e0 83 bd f4 73 cd 3e 09 e3 b8 be 89 a3 83 bd
       -0.06439264 0.40127528 -0.36110714 -0.06427676
000020 31 6d ec 3d 56 a2 9f be 4b 42 39 be ff 37 be 3d
       0.11544264 -0.3117854 -0.18091695 0.09288024
000030 73 33 82 be 4e 5c 6d bd 38 30 59 3e 32 62 02 3e
       -0.25429878 -0.057949357 0.212098 0.12732771

sage_conv.lin_r.weight f4 [16, 9]
000000 ac 0a 01 bf 49 c9 de 3d 60 3a 4f 3e 64 93 65 3e
       -0.5040691 0.10878236 0.20237112 0.22419506
000010 1f df ef be 32 27 8a 3f be 72 15 be 10 cd 94 be
       -0.46849915 1.0793211 -0.14594552 -0.290627
000020 bd 06 ba be 0b 23 bb bd 8b ed 04 3e 7e ba 4c be
       -0.36333266 -0.09137543 0.1298124 -0.19993016
000030 6a 59 88 3e 6e dd 6f be 07 95 83 be 6e ed 19 3e
       0.26630718 -0.23424312 -0.25699636 0.15031978
000040 5e 5d 52 be bb 28 63 be 0a 3d d5 3d 83 c4 17 3d
       -0.2054343 -0.22183506 0.10412033 0.037052643
000050 8f be 1b bd 21 cf 82 3d 62 51 4c 3f 28 fe 3b bf
       -0.038023528 0.06387163 0.7981168 -0.73434687
000060 0a 76 ab be e8 98 b1 3e 87 8b 9f 3e 73 79 10 be
       -0.33488494 0.3468697 0.31161138 -0.14108829
000070 ab 9b 73 bd 56 50 6a bc 42 fe 98 be 78 22 5e be
       -0.05947463 -0.01430138 -0.29881483 -0.21692836
000080 2b 4d 79 bc 80 a3 a0 3c 80 a4 94 3e 73 17 53 3e
       -0.015216152 0.019609213 0.29031754 0.20614414
000090 bc 38 fe be 7b 15 cb 3e 2c 7c 42 3d d9 48 b7 3b
       -0.4965266 0.39664826 0.0474817 0.005593401
0000a0 1f bb cc be 4a e9 cb be 3b ef 33 3f b4 f9 1a bf
       -0.39986512 -0.39826423 0.7028691 -0.60537267
0000b0 cc 24 c0 be 54 e5 5b 3e f2 b2 0e bd 56 58 88 be
       -0.37528074 0.214742 -0.034838624 -0.26629895
0000c0 67 81 48 bd 63 a5 ac be 9f 45 b4 3f 33 0b ca be
       -0.048951533 -0.3371993 1.4083747 -0.3946167
0000d0 cc 88 e2 bc 85 da b1 39 b8 85 a0 be 99 5f d8 3e
       -0.02765312 0.0003392288 -0.3135202 0.42260435
0000e0 da 71 62 3e 68 60 40 3c 99 6e 9f be 95 67 8f 3f
       0.22113743 0.011741735 -0.31139067 1.1203486
0000f0 6c 10 ab 3e 75 a1 0e bf 59 b1 20 bf c9 83 82 be
       0.33410966 -0.55715114 -0.6277061 -0.2549117
000100 05 fe 96 3e 1c 17 9b 3b 07 a8 b5 3c 6f 7b bd bc
       0.29490677 0.0047329795 0.022174848 -0.023130147
000110 b3 74 7b bf 33 9c f9 3e 8d 1e 85 be 7e 38 a6 be
       -0.98224944 0.48751983 -0.2599987 -0.32464975
000120 2f 24 82 be 3f 1a ba 3e b0 1a af 3e 57 93 81 3e
       -0.2541823 0.3634815 0.34200048 0.25307724
000130 dc 46 ff 3e 76 7c 6e be df 11 c8 bf 67 1f c3 3e
       0.4985875 -0.23289666 -1.5630454 0.38109896
000140 0f 9c 0b 3f 2d a4 e8 3d 1c c7 53 be a9 d5 2e 3e
       0.54535 0.11359439 -0.20681423 0.17073692
000150 38 aa 17 3e ca 1f c3 be 69 d2 c7 3f 84 93 e8 be
       0.14811027 -0.3811019 1.5611087 -0.45425045
000160 c3 40 05 3e de 11 7d 3e c0 39 f6 bc a3 86 27 3e
       0.13012986 0.24713847 -0.030056834 0.16359954
000170 b3 e9 73 be e8 00 09 3e 73 48 33 be 90 02 dc 3d
       -0.23819618 0.13379252 -0.17508106 0.10742676
000180 cc e9 a4 3e 60 38 2a 3e c6 cc a7 bd 27 20 8f 3d
       0.32209623 0.16623068 -0.08193354 0.069885544
000190 56 d5 88 be 00 78 a4 3d 17 b1 8f 3e 60 7d 74 bf
       -0.26725262 0.08030701 0.28064796 -0.9550381
0001a0 2e a3 8d 3f 6f 97 91 bf 5b ff 51 3c ac 4c 1a be
       1.1065423 -1.1374339 0.012817229 -0.1506831
0001b0 66 dc 95 bd 60 01 0f bd 43 a5 40 be c6 cb 75 be
       -0.07317428 -0.03491342 -0.18813042 -0.24003515
0001c0 53 75 3e 3e 74 83 97 3e 16 c0 8f 3d 73 14 75 3e
       0.18599443 0.29592478 0.07019059 0.23933582
0001d0 1b 8d a2 bd db c0 af be 7d 17 68 3e 98 70 8a 3e
       -0.0793707 -0.34326825 0.2266521 0.27039027
0001e0 42 70 08 3d e2 fc 00 bf e0 28 94 3f 44 be 18 3e
       0.033310182 -0.5038587 1.1574974 0.1491633
0001f0 07 07 08 bf ca 35 10 bf aa 40 35 bd 74 82 60 3e
       -0.5313572 -0.56332076 -0.04425112 0.21924764
000200 ef ca 7c 3e 76 51 d2 bc b4 20 96 3e 85 d5 97 bf
       0.24686788 -0.02567361 0.29321826 -1.1862036
000210 00 d5 ac bf 89 b6 07 3f 52 06 2c 3f e3 e6 b6 be
       -1.3502502 0.530129 0.67197144 -0.35723028
000220 b2 7e b9 3e 04 99 76 3d 3e 89 68 3d fc 27 d4 be
       0.36229473 0.06020452 0.05677151 -0.41436756
000230 98 8d 4e 3f 3a f6 01 3f 32 3f 92 be 98 78 bb be
       0.80684805 0.50766337 -0.2856384 -0.36615443

gat_conv.att_src f4 [1, 4, 16]
000000 5b e1 1d 3f 0c 0c 2e 3f ca a4 5f bf 65 18 a5 be
       0.6167199 0.6798713 -0.87360823 -0.32245174
000010 90 ae 7e 3f a6 8f 2d 3e 29 a4 b0 be b2 19 81 be
       0.9948511 0.16949329 -0.34500244 -0.25214916
000020 82 9b 18 3e 8a 74 79 bf 93 21 34 be bc ba 99 3f
       0.14903072 -0.9744345 -0.17590933 1.2010112
000030 4c 8e a2 3f 06 3e e4 3d 46 48 40 bf b9 9d 9a be
       1.2699676 0.111446425 -0.7511028 -0.30198458
000040 67 9a 71 3f 55 1d 31 3f 62 c9 6c bf f8 45 16 bf
       0.94376224 0.6918538 -0.92494786 -0.58700514
000050 60 40 80 3d 5c e7 5c 3f 73 ad b1 be 57 5b 8e 3e
       0.062622786 0.86290526 -0.34702644 0.27804062
000060 ff f9 7f 3a 67 57 f9 3e b1 a1 65 3d 53 6e 83 3f
       0.00097647303 0.48699495 0.056062404 1.0268043
000070 9f 71 14 bf 6b b4 0e 3f 38 55 97 bf 22 e8 b7 be
       -0.5798587 0.55744046 -1.1822882 -0.3591929
000080 10 cf 28 be d3 56 7d bf c5 ed 9f be 9f 03 1d bf
       -0.16485238 -0.9896061 -0.3123609 -0.6133365
000090 0f bd cb bd 7d df 46 bf d2 e2 9e bd af c4 79 3e
       -0.099481694 -0.77684766 -0.07758106 0.24391435
0000a0 56 0c bf 3e 99 1b 96 be b7 3c 49 3f 94 08 a0 3e
       0.373141 -0.2931793 0.7860827 0.31256545
0000b0 c3 c4 89 3e 54 7d 2f 3f 3a 9c ee be 05 d4 4e 3f
       0.2690793 0.6855061 -0.46603566 0.80792266
0000c0 5a e4 67 3f 8d 86 f2 3c 90 0d 71 bf 6a dd de be
       0.9058281 0.029605174 -0.9416132 -0.435283
0000d0 b7 f4 ef bd 40 f7 42 3e 7f 64 45 bf 22 1d 62 3e
       -0.117165975 0.19039631 -0.7710647 0.22081426
0000e0 5a 83 20 3f 4c e7 c8 3e 5f 75 79 bf ee fc 51 be
       0.62700427 0.39238966 -0.9744472 -0.20506641
0000f0 1a 3d 6b bf 63 39 13 3f 44 70 85 bf d7 a8 ef bd
       -0.9189011 0.5750944 -1.0424886 -0.117021255

gat_conv.att_dst f4 [1, 4, 16]
000000 1c af be 3e 03 79 1e 3f f3 10 1d bf 36 cd 95 be
       0.37242973 0.619034 -0.6135399 -0.29258126
000010 cb 26 56 3e 0c 43 bb 3e 57 12 e8 ba d7 9b 9e 3d
       0.20913236 0.3657459 -0.0017705661 0.07744568
000020 c8 a7 f6 3e b8 b3 bc 3e fa ff 91 be f7 d1 c3 be
       0.48174882 0.36855865 -0.28515607 -0.38246128
000030 d4 a3 48 3b 61 46 b0 bd 1d 1a b0 be fa f6 93 bd
       0.0030615227 -0.08607174 -0.34394923 -0.072248414
000040 73 92 c7 3e 0c 0d 84 3e a9 26 49 bf 96 f6 a5 3e
       0.3897892 0.25791204 -0.78574616 0.32414693
000050 55 cb c5 3d fa 45 cd 3d d8 2e d7 3e e4 99 98 3e
       0.09657923 0.100231126 0.42027926 0.2980491
000060 cd 7e 74 bc 23 16 72 be 1f 9e 08 3e 3c 0d 10 3f
       -0.01492281 -0.23641257 0.13341568 0.56270194
000070 59 fd 4a 3e ce 31 d5 3e 31 6c 7e 3e 3d 00 1b 3f
       0.19823207 0.4163956 0.24845959 0.6054724
000080 fa 47 d9 3e 31 d0 ca be fe 59 15 3e 63 41 c0 bd
       0.42437726 -0.39611962 0.1458511 -0.093874715
000090 73 42 a5 3e 6d 8f c4 be 03 0f 94 3e 65 bf 81 3e
       0.3227726 -0.38390675 0.28917703 0.25341335
0000a0 2e 85 04 3f b7 13 e0 3d a8 42 77 3d c1 d3 a1 3e
       0.51765716 0.1094126 0.060366303 0.31606868
0000b0 1f 96 ce 3e 38 c1 f8 3d 7b 54 ea bd b8 20 3b 3d
       0.40348908 0.121462286 -0.114418946 0.0456855
0000c0 94 0a b6 3e b3 fc 00 be 25 8e c4 3d 0e a6 33 be
       0.35554945 -0.12596397 0.095974244 -0.17543814
0000d0 71 a4 97 be d6 98 51 be ca 30 03 bf 54 27 2f 3f
       -0.29617646 -0.20468459 -0.5124632 0.68419385
0000e0 16 a8 b2 3e 4f 2c 99 3e cf b5 38 bc 1e c3 99 be
       0.34893864 0.29916617 -0.011273815 -0.30031675
0000f0 d5 c3 b9 3e 85 67 e7 bd 2b b7 51 be 49 40 d6 3c
       0.3628222 -0.11299042 -0.2048003 0.0261537

gat_conv.bias f4 [16]
000000 c1 45 1a 3e e9 b2 a3 3e b9 8d bb 3e 61 c3 90 3e
       0.15065672 0.31972435 0.36631563 0.28274062
000010 90 8e a5 3e 04 87 39 3e 67 f5 98 3e ac 89 95 3e
       0.3233533 0.1811791 0.29874727 0.29206598
000020 13 35 44 3e 06 31 ae 3e 0a e3 17 3e 2e 65 ad 3e
       0.19160871 0.34021777 0.14832702 0.33866256
000030 e1 4c 42 3e 24 cf 11 3e 92 db 3e 3f c9 91 9c 3e
       0.1897464 0.14239174 0.7455379 0.30579975

gat_conv.lin.weight f4 [64, 16]
000000 f0 f0 ef 3e 9a e7 40 3e 69 c2 14 3e c2 35 dd bd
       0.46863508 0.18838349 0.14527287 -0.10801269
000010 35 f9 00 be d4 5e c4 3e 3f 14 be 3e 4e 79 09 be
       -0.12595065 0.38353598 0.37124822 -0.1342518
000020 e1 00 ad 3e 09 5b 8b 3e ff a7 54 bd c8 a2 aa 3e
       0.33789733 0.27217892 -0.051918026 0.33327317
000030 bf 3a 89 be 16 b4 d4 3e e5 2b 35 3e 72 9b 19 3c
       -0.26802632 0.41543645 0.17692526 0.00937544
000040 38 b8 8f 3e 2e 4e f0 bd 97 15 c7 3d f5 54 86 3e
       0.28070235 -0.117336616 0.09720915 0.26236692
000050 af e5 f3 bd f0 30 59 3f 0f 7c f3 bc 15 90 fc 3b
       -0.11909043 0.848403 -0.029722242 0.0077076056
000060 ba 2d ab 3e 14 cb a5 3e 27 37 5d be 9f 35 86 3e
       0.33433324 0.323815 -0.2160307 0.26212785
000070 e8 18 58 bd 03 12 f8 3e 86 c5 4e bd 56 f4 59 3f
       -0.052758127 0.48451242 -0.05048134 0.8513845
000080 39 b0 f4 be dd 74 2e be 43 df b1 be d6 3d 76 3d
       -0.47790697 -0.17036767 -0.34740648 0.060117565
000090 5c 69 bd 3e db 60 e3 be 9d 6e 6a bd 0a 2e 37 bf
       0.36994445 -0.44409832 -0.057234395 -0.71554625
0000a0 68 7e 07 3e 1c 32 7d bf b2 8b 5c be 74 eb cc be
       0.13231814 -0.98904586 -0.21537665 -0.40023386
0000b0 0b 83 02 bd c9 d0 84 3d 89 ef d0 be af 88 0c bf
       -0.031863254 0.06485135 -0.4080775 -0.5489606
0000c0 9e f5 a8 be 58 c8 7d be c9 a0 d4 3e 8c 10 4b 3e
       -0.3299989 -0.24783456 0.4152892 0.19830531
0000d0 95 e3 fb 3d a8 43 e2 be de 56 df 3d 27 d0 4a be
       0.12299267 -0.44192243 0.109052405 -0.19805966
0000e0 ad a0 53 3e 09 b8 04 3e 3c 76 35 bd 7f e9 16 bd
       0.20666762 0.12960829 -0.04430221 -0.036843773
0000f0 a7 0a 87 be 1e 1f 9d be 6e b8 76 3f ae 1c 04 bf
       -0.26375315 -0.30687803 0.9637517 -0.5160626
000100 04 22 79 3e 42 2f 15 be a5 a6 1e bd 99 ba 0e 3e
       0.24329382 -0.14568809 -0.038733143 0.13938369
000110 5b 2c a4 be 27 ca 2e 3f d0 64 29 bd 50 a4 ea 3e
       -0.3206509 0.6827721 -0.041355908 0.45828485
000120 a5 84 02 3e 7d 94 05 3f 58 56 af bc 0f 51 c8 3e
       0.12745912 0.521797 -0.021403477 0.39124343
000130 c0 64 78 be 7f 31 b8 3e d6 97 ed bd 07 0b 27 3f
       -0.24257183 0.35975263 -0.11601226 0.652512
000140 94 5c f9 3c f3 3b 83 be 0f c2 ee 3d 7c 7c 8b bd
       0.030439653 -0.25631675 0.116581075 -0.06810853
000150 ba e1 55 3d 7d 8d 54 bf ed 92 e2 3e a9 9f a1 3f
       0.052217223 -0.83028394 0.4425272 1.262685
000160 a3 c7 9a 3e 92 8e c5 be 1c 5e 0d be 46 14 bd 3c
       0.30230436 -0.38585335 -0.13805431 0.023080956
000170 38 0d c9 bc fc 4a 08 be 12 a9 c5 3e 40 b3 62 3f
       -0.024542436 -0.13309854 0.38605553 0.88554764
000180 0d f7 9d bc 54 8b 83 3e 9f 5d 94 3e c2 ab 8d bd
       -0.019282842 0.25692236 0.28977677 -0.06917526
000190 66 1e 9f 3e fc 63 27 bf fe 4e 0d be 2a 57 75 bb
       0.3107788 -0.6538694 -0.13799664 -0.0037435987
0001a0 37 dd c5 bd 83 9a 13 3e b2 30 6d bd e1 fc 8a 3c
       -0.09661334 0.1441441 -0.057907768 0.016966285
0001b0 87 09 02 be 85 e4 93 bd 84 57 2b 3f 20 9d 28 bf
       -0.12698947 -0.07221321 0.66930413 -0.65864754
0001c0 bc 6d d6 be 33 53 0d bd 34 80 eb 3c 0f 91 80 3c
       -0.41880596 -0.034503173 0.028747655 0.01569417
0001d0 b2 2f 11 3f 3e a2 c1 bf 8f 04 8a 3e f1 a8 bd 3f
       0.567134 -1.5127637 0.26956603 1.4817182
0001e0 91 80 2e 3e 40 7f 16 bf de c7 93 3d f4 bb 1a be
       0.17041232 -0.5878792 0.07215856 -0.15110761
0001f0 b7 43 73 3d eb 27 d0 bd 2b ab 7d 3e 9f d4 54 3f
       0.05939075 -0.10163864 0.24772327 0.83136934
000200 f3 14 6a bd 16 20 09 3d 94 65 85 3e c2 08 87 bd
       -0.057148885 0.033477865 0.2605406 -0.06593467
000210 21 1d 15 3e 89 db 9f bf 72 d9 f4 bd 05 02 c0 3f
       0.14561893 -1.2488872 -0.11955537 1.5000616
000220 ba e6 64 3e 08 22 a8 be 52 6b 6a 3e 58 36 3d be
       0.2235364 -0.32838464 0.22892502 -0.18477762
000230 43 7b 64 3e 89 e3 2c 3e 00 63 c9 3e 8c 87 3e 3f
       0.22312646 0.16883673 0.39333344 0.7442558
000240 fd 1e 9c be 38 1c 8b 3e f0 ef ad 3a 7a 36 7b be
       -0.30492392 0.27169967 0.001327036 -0.245325
000250 9f 8e 9d 3e b0 de e0 be e5 d0 c0 bc e5 76 28 bf
       0.30772874 -0.43919897 -0.023537109 -0.6580642
000260 8b 4d 7f 3d eb 83 98 3d 91 4d f8 3d 00 7f 09 be
       0.06232981 0.07447036 0.121241696 -0.13427353
000270 6f 0e 5e be 29 4f 0e 3d 46 9e 03 bf 8c a9 87 3e
       -0.21685193 0.03474346 -0.5141338 0.26496542
000280 9c 4b 4b 3e 83 4d f2 3c 2e 2b ae 3e a8 34 a5 3d
       0.19853061 0.029577976 0.34017318 0.08066684
000290 2b 8c 52 3d b1 84 ca bd 5c 3c b6 3e 29 8f 19 be
       0.051403206 -0.0988859 0.35592926 -0.14996018
0002a0 75 16 96 3e 9d 5b bb bd 18 1f 1e 3d ef 20 29 3e
       0.29314008 -0.09148333 0.038603872 0.1651647
0002b0 59 5e ef bd d8 e3 78 3c fa b2 66 3f c8 ad 2e bf
       -0.11687917 0.015191041 0.90116847 -0.6823392
0002c0 e5 5a ae 3e cf 2d 66 3e 5f 4c c6 bd 39 f4 25 3e
       0.34053722 0.22478412 -0.096825354 0.16206445
0002d0 f6 41 1d bf 03 f9 a1 3f bc 7b c8 bd a6 98 bb be
       -0.61428773 1.2654117 -0.097892255 -0.366399
0002e0 c0 db 13 3e 02 db 8a 3f ea b2 8d 3c 18 49 1e 3f
       0.14439297 1.0848086 0.017297227 0.6183028
0002f0 09 66 b6 bc 88 7a 99 3e 19 16 57 3e c9 db 39 be
       -0.022265451 0.29976296 0.21004523 -0.18150248
000300 fe ad 41 3e e2 18 0f 3e ce f5 28 bd 5c 87 0a 3e
       0.18914029 0.13974336 -0.041250043 0.13528198
000310 92 a8 b2 be b8 7f fa 3e 91 06 b9 be b1 79 e6 3e
       -0.34894234 0.48925567 -0.36137822 0.45014718
000320 0d 82 98 be 77 fd f4 3e f4 1f 3c 3e 73 be 87 3e
       -0.2978672 0.47849628 0.18371564 0.2651249
000330 bc 69 12 be 7b f8 0f be d9 43 09 3e 82 61 07 3f
       -0.14298147 -0.14059632 0.13404788 0.5288316
000340 b7 81 b5 3e 51 f8 db 3d 2f e0 e1 3d 78 7a 99 bd
       0.35450527 0.10740722 0.11029088 -0.07494062
000350 1d 34 2a be d0 8b 94 bc 71 87 2f 3f 25 7d 3a 3f
       -0.16621442 -0.018133074 0.6856604 0.72847205
000360 d1 2c 09 3f 33 b3 06 bd e5 d0 4f be 2b e7 32 3e
       0.5358401 -0.03288574 -0.2029453 0.17470996
000370 42 60 4f be 3f 23 07 3f 02 29 aa be ec 54 81 3f
       -0.20251563 0.52788156 -0.3323441 1.0104041
000380 6a 9e ae be 7c 86 f1 3b 9d a1 55 3d 96 7f 1b 3e
       -0.34105235 0.007370768 0.05215608 0.15185389
000390 d4 0e 11 3d 71 5b c6 bd f2 62 2a 3e 88 e9 2f bf
       0.03541453 -0.0968541 0.16639307 -0.68715715
0003a0 89 25 86 3e 6f 10 75 bf 38 bc 7b 3c e6 1f db 3e
       0.26200512 -0.957282 0.015364699 0.42797774
0003b0 cb a9 2c 3d 95 3b 8c 3e 08 98 1c bf 5d 15 10 bf
       0.042154115 0.27389207 -0.6116948 -0.562826
0003c0 d2 7a a7 be 2a 86 66 3d 2d c9 60 3e 2a 54 1f be
       -0.32710892 0.056280293 0.21951742 -0.1555945
0003d0 d8 4d 11 3e 39 4a b0 bf 36 cf ad 3e 6a 06 8d 3f
       0.14189851 -1.3772651 0.33947152 1.1017582
0003e0 3a f8 39 3e b5 95 02 bf f8 3c ac bd e7 e6 b8 be
       0.18161097 -0.51009685 -0.08410066 -0.36113665
0003f0 97 7b b1 3d 82 67 ec bd 5d 4f 35 3e 63 a0 36 3f
       0.08666151 -0.1154318 0.17706056 0.7133848

action_head.weight f4 [4, 16]
000000 a5 2b 06 be 7d 79 b5 bf b1 ee 55 bf 87 c8 6d 3f
       -0.13102587 -1.41777 -0.8356734 0.92884105
000010 02 6e 4e bf 7b 08 e1 3b c0 66 5e 3f e6 9f 90 3e
       -0.8063661 0.006867466 0.86875534 0.28246993
000020 a7 60 59 3e 79 4a 56 bf ff f5 ea 3e 73 26 75 be
       0.21228276 -0.83707386 0.45890805 -0.23940448
000030 56 4f 22 bf 1e 2d 05 bf 63 0e 00 be 95 22 29 3e
       -0.6340231 -0.5202197 -0.12505488 0.16517098
000040 98 4c 18 3f c9 71 51 3f 9d 1f 7d 3f 91 4c c4 be
       0.5949187 0.8181425 0.98876363 -0.38339666
000050 b3 bd 1b 3f 27 3a 04 bf 6b ba c3 be fe 5a 8e bf
       0.60836333 -0.51651233 -0.38228163 -1.1121519
000060 16 dd 6e bf 23 2b 89 3d 4c e4 64 bd 1d 40 31 3f
       -0.933061 0.06697681 -0.055881783 0.69238454
000070 8a 50 91 be 08 8f c5 3e 8f 78 83 3f 09 ba 6f bf
       -0.2838176 0.38585687 1.0271167 -0.9364324
000080 3a 99 19 bf 3a c7 54 3d 2a 62 f7 bd 45 69 30 bf
       -0.5999943 0.05194781 -0.1207927 -0.6891063
000090 c7 9b 0d 3f b2 c4 0d 3f 73 8e 04 bf a3 5d 61 3f
       0.5531582 0.5537826 -0.5177986 0.88033503
0000a0 26 0c 18 3f 23 5e 14 3f 95 29 2d bf 6d e9 c8 bf
       0.5939354 0.5795614 -0.67641574 -1.5696236
0000b0 87 90 a0 3e 1e d5 0d 3f d1 91 2a bf f7 bd 2b 3f
       0.31360266 0.55403316 -0.6662875 0.6708674
0000c0 db 46 f9 be bb 00 a2 be dd bb a7 bd 64 78 b9 3e
       -0.4868687 -0.31641182 -0.08190129 0.36224663
0000d0 52 5f 1b bf 26 c0 be bf 91 e3 f1 3e c4 76 6a bf
       -0.6069232 -1.4902389 0.47243932 -0.9158747
0000e0 b1 3e b2 bf 31 df 64 3f 34 d0 d6 be 1d 8e d0 3f
       -1.3925382 0.89403063 -0.4195572 1.629337
0000f0 d3 9a de 3f bb c1 a5 bf 03 a9 93 bf a1 55 86 bf
       1.7390999 -1.2949747 -1.1535953 -1.0494882

action_head.bias f4 [4]
000000 56 64 19 3e 57 0c 5c 3e 4c ba 48 be af cd 2f bc
       0.14979681 0.21489082 -0.19602317 -0.010730191
