src/GraphSAGE_model_weights_4_class.pth (torch, 10228 bytes, 9 tensors)

sage_conv.lin_l.weight f4 [16, 9]
-0.011412105 0.31657347 -0.25318822 -0.11355885 -0.07503104 -0.28708434 -0.15329759 -0.10287957
-0.24015765 -0.14157662 0.15949911 0.05154937 -0.051799197 0.8390338 -1.9320967 -0.3223214
0.4409286 0.30616173 0.22506717 -0.1435924 -0.17944838 0.1765293 -0.04126831 1.2576486
-0.92549545 -0.32808414 0.12800948 0.31258467 0.12149398 0.13738222 0.25327364 -0.14481656
-1.4762824 0.95460796 -0.46998236 -0.4913238 -0.37948954 -0.08731358 0.28944045 -0.19267732
0.13277766 -0.55099535 -1.2612175 0.6588354 0.6821392 -0.12882535 -0.32607818 -0.26906547
0.23696825 -0.15415367 0.04269167 0.2610615 -0.26155636 0.09554534 0.2017743 -0.06522834
-0.21834344 -0.16770616 -0.26607627 -0.056904636 0.1630658 -0.081735775 0.14993894 0.17395112
-0.38459903 0.055717655 -0.10364388 -0.6154771 2.6782858 -0.50853294 0.062460225 -0.30185604
-0.015636137 -0.24634027 0.045981694 0.062103007 -0.69218886 2.6050215 -0.7284303 0.36361918
0.36668053 -0.14213558 0.3085568 -0.23211066 0.24279454 0.066574916 -1.2409912 -0.3085862
0.18105471 0.19664189 0.015613736 -0.284318 0.26926205 0.2292596 -0.23690414 -1.2092055
0.8993617 -0.25966817 -0.5794071 0.050721038 0.21578413 0.14169276 0.32006106 0.6352768
-1.1598402 -0.89822125 0.45145354 0.27420026 -0.28013036 0.09962639 -0.0035348132 0.1605639
-0.13609317 -0.15262583 -2.944495 0.35422924 0.42897666 0.20551708 -0.061013687 0.042495266
0.15755668 -0.554992 2.1389923 -0.7513436 0.27531457 0.48601264 0.047523618 0.18676771
0.089903176 -0.16820721 -0.092915416 -0.1633347 -2.8621283 0.4168656 0.45814157 -0.06074079
-0.317204 -0.27603585 0.19428103 0.27861565 -0.22938368 -0.16959354 -0.026170492 -0.26436862
00000000: d6f9 3abc eb15 a23e e3a1 81be 8b91 e8bd
00000010: e0a9 99bd b8fc 92be 0bfa 1cbe 86b2 d2bd
00000020: e3eb 75be 76f9 10be bc53 233e 6f25 533d
00000030: 652b 54bd ebca 563f f24e f7bf 4f07 a5be
00000040: 65c1 e13e 3bc1 9c3e 0278 663e e309 13be
00000050: 51c1 37be 19c4 343e f608 29bd a1fa a03f
00000060: 45ed 6cbf a5fa a7be eb14 033e 190b a03e
00000070: d6d1 f83d edad 0c3e 15ad 813e cb4a 14be
00000080: d2f6 bcbf 3061 743f 87a1 f0be cb8e fbbe
00000090: 744c c2be 76d1 b2bd 8a31 943e 344d 45be
000000a0: def6 073e 080e 0dbf 936f a1bf 70a9 283f
000000b0: ada0 2e3f cbea 03be b8f3 a6be f3c2 89be
000000c0: cea7 723e 76da 1dbe 76dd 2e3d daa9 853e
000000d0: b7ea 85be 46ad c33d ec9d 4e3e 7096 85bd
000000e0: 6c95 5fbe 2abb 2bbe 263b 88be d614 69bd
000000f0: b9fa 263e 1665 a7bd 9889 193e 3e20 323e
00000100: 2aea c4be 3238 643d 3e43 d4bd e88f 1dbf
00000110: 0969 2b40 372f 02bf 4bd6 7f3d e08c 9abe
00000120: 5b17 80bc a040 7cbe 4d57 3c3d b95f 7e3d
00000130: 4a33 31bf acb8 2640 687a 3abf 4b2c ba3e
00000140: 8dbd bb3e fd8b 11be 28fb 9d3e 6bae 6dbe
00000150: 229f 783e 6e58 883d cdd8 9ebf 03ff 9dbe
00000160: 6866 393e 7e5c 493e c1d0 7f3c 2192 91be
00000170: b7dc 893e 07c3 6a3e 0097 72be 3fc7 9abf
00000180: 923c 663f 3af3 84be 0654 14bf ddc0 4f3d
00000190: 84f6 5c3e e817 113e 0bdf a33e 80a1 223f
000001a0: a575 94bf d4f1 65bf eb24 e73e fa63 8c3e
000001b0: 3f6d 8fbe ec08 cc3d 53a8 67bb dd6a 243e
000001c0: 025c 0bbe f249 1cbe 9b72 3cc0 895d b53e
000001d0: d4a2 db3e 1273 523e 7de9 79bd 840f 2e3d
000001e0: 8a56 213e f513 0ebf 40e5 0840 0e58 40bf
000001f0: 08f6 8c3e a6d6 f83e 20a8 423d 0940 3f3e
00000200: 281f b83d 833e 2cbe 704a bebd 3641 27be
00000210: 1c2d 37c0 686f d53e 8891 ea3e 56cb 78bd
00000220: 9068 a2be 9254 8dbe 9bf1 463e b6a6 8e3e
00000230: 8ee3 6abe eea9 2dbe 8063 d6bc 535b 87be

sage_conv.lin_l.bias f4 [16]
0.07813668 0.049911223 0.2563821 -0.10575807 0.2165707 0.0668664 0.0054475716 0.2233599
-0.004596875 0.17253101 -0.18781972 0.051201575 0.14466833 -0.20186792 -0.12312745 0.037566148
00000000: 2006 a03d b66f 4c3d 8444 833e b097 d8bd
00000010: b6c4 5d3e 40f1 883d 8b81 b23b 75b8 643e
00000020: 62a1 96bb f8ab 303e d053 40be beb8 513d
00000030: ef23 143e 77b6 4ebe 3f2a fcbd f6de 193d

sage_conv.lin_r.weight f4 [16, 9]
-0.24521387 -0.21753018 -0.09547727 -0.16974327 -0.18774605 -0.05848559 -0.065039515 0.083778225
0.28665555 0.37311295 -0.17099243 -0.046515003 -0.24398194 0.688154 -0.30297223 -0.35086685
0.18087646 0.33953238 -0.40885305 -0.039696183 0.188844 0.0046931617 -0.093924634 -0.42633724
-0.8041601 0.05218079 0.14900711 0.14661554 0.29222986 0.15217255 0.33142343 -0.83017856
-0.03719159 0.8854037 -0.18910049 -0.028610244 -0.14724164 0.09578441 -0.17997193 -0.06828931
0.22705308 0.015090204 -0.24071656 -0.032434765 -0.023261463 0.12520635 -0.08267681 -0.1352975
0.30881095 -0.24334078 0.24696419 0.04037019 -0.3088077 0.25221252 0.074369475 -0.11660058
-0.10047836 -0.123866044 -0.2452116 -0.15408358 -0.27941847 0.0010154247 0.28467926 -0.088282034
0.12698705 0.01130997 0.3266962 -0.6876987 0.97696775 -0.708165 -0.014479227 -0.024683172
0.18437988 0.23253238 0.0998791 0.009190327 -0.7104802 1.0118408 -0.9101252 0.26491714
0.2971266 0.27824008 -0.020763006 0.2005836 0.39917916 0.6716541 -0.82001114 0.12239015
-0.15269189 0.31598407 0.26993537 0.26563072 0.079848506 0.070526294 0.119537674 0.029149998
0.9298068 -0.5154213 -0.31281695 0.2184871 -0.21930116 0.2964574 0.08113794 0.77101165
-1.1118413 -0.4047187 -0.08333785 0.37265542 0.3086002 0.087601386 -0.34740588 -0.3495248
-0.24241792 0.86610365 -0.2078512 0.02518189 0.29722142 -0.22778925 -0.025947943 0.1549487
-0.0013568725 -0.5283223 1.2120073 -0.5648333 0.28486463 0.30507803 0.24964169 -0.18038408
-0.38028947 -0.2425534 -0.1937031 0.9868896 -0.16353415 -0.027651548 0.16993575 -0.043996334
-0.2895673 -0.10412785 -0.12528186 0.2996983 -0.058424514 -0.2628089 -0.20327163 0.043923855
00000000: 5819 7bbe 3bc0 5ebe 9689 c3bd 2ed1 2dbe
00000010: 8040 40be 968e 6fbd 7033 85bd eb93 ab3d
00000020: 84c4 923e a908 bf3e a418 2fbe 8486 3ebd
00000030: 67d6 79be dc2a 303f 2d1f 9bbe d2a4 b3be
00000040: ae37 393e 30d7 ad3e 3055 d1be 7798 22bd
00000050: 5260 413e 18c9 993b 8f5b c0bd e048 dabe
00000060: 70dd 4dbf 86bb 553d 5295 183e 6222 163e
00000070: 279f 953e 1fd3 1b3e 55b0 a93e 9586 54bf
00000080: 3556 18bd d1a9 623f 8fa3 41be 0860 eabc
00000090: 83c6 16be 9e2a c43d 904a 38be 44db 8bbd
000000a0: 9a80 683e e73c 773c 677e 76be 51da 04bd
000000b0: d38e bebc 1836 003e 7652 a9bd 6e8b 0abe
000000c0: 781c 9e3e 532e 79be 2ee4 7c3e 365b 253d
000000d0: 0b1c 9ebe 0022 813e 064f 983d 49cc eebd
000000e0: 99c7 cdbd 7bad fdbd c018 7bbe 16c8 1dbe
000000f0: f00f 8fbe 0018 853a 7bc1 913e 36cd b4bd
00000100: e508 023e 744d 393c b944 a73e 060d 30bf
00000110: 8f1a 7a3f 4d4a 35bf 483a 6dbc 5d34 cabc
00000120: 14ce 3c3e f81c 6e3e 6a8d cc3d 0693 163c
00000130: 08e2 35bf 0084 813f f7fd 68bf 38a3 873e
00000140: fa20 983e 7c75 8e3e 2e17 aabc ca65 4d3e
00000150: 3661 cc3e 86f1 2b3f 40ec 51bf b0a7 fa3d
00000160: 435b 1cbe aac8 a13e f834 8a3e c000 883e
00000170: 9d87 a33d 1770 903d 2bd0 f43d facb ee3c
00000180: d207 6e3f a6f2 03bf 8b29 a0be 15bb 5f3e
00000190: 7c90 60be 44c9 973e a62b a63d 0561 453f
000001a0: d150 8ebf 4a37 cfbe 09ad aabd b1cc be3e
000001b0: d800 9e3e 5b68 b33d 2fdf b1be eaf4 b2be
000001c0: 673c 78be f8b8 5d3f f2d6 54be 404a ce3c
000001d0: 682d 983e 9641 69be c890 d4bc dfaa 1e3e
000001e0: 16d9 b1ba 2140 07bf 0e23 9b3f ea98 10bf
000001f0: c7d9 913e 3033 9c3e 12a2 7f3e 9bb6 38be
00000200: 4db5 c2be eb5f 78be 1b5a 46be cca4 7c3f
00000210: 7f75 27be 8085 e2bc a303 2e3e 8035 34bd
00000220: 2a42 94be fb40 d5bd e349 00be 0e72 993e
00000230: 8b4e 6fbd e38e 86be 7026 50be 80e9 333d

gat_conv.att_src f4 [1, 4, 16]
0.053574394 -0.15852635 -0.79826546 0.46366468 -0.12874237 1.3372825 1.0046862 0.06776026
0.50678045 -0.7105211 -0.36292052 0.6858108 1.0443288 -0.36328703 -0.5804832 -0.19977432
0.02139634 -0.00061461475 0.85392183 -0.03356436 0.37583238 1.0384536 0.92346853 -0.2170539
0.9376888 0.86484325 -0.38459185 0.16301617 0.43717438 0.42884043 -0.9073023 0.22435915
0.09024024 -0.33645844 0.7530821 0.09818749 -0.14267692 0.12107523 0.4500845 -0.4648418
0.5325941 -0.5000217 0.11250146 0.15506655 -0.08090189 0.08214653 0.70638746 -0.092452295
-0.134226 -0.11251962 0.9404528 -0.19094898 -0.5419947 1.0739621 -0.70244414 0.18694808
0.592184 0.30145803 -0.7905035 0.30660856 0.61553466 0.77114373 -0.7221831 -0.712165
00000000: d370 5b3d bb54 22be 205b 4cbf 7565 ed3e
00000010: 0ad5 03be 132c ab3f 8f99 803f e4c5 8a3d
00000020: 5dbc 013f b6e4 35bf b8d0 b9be 4c91 2f3f
00000030: 91ac 853f c200 babe 8c9a 14bf a491 4cbe
00000040: 6147 af3c 191e 21ba 9f9a 5a3f c87a 09bd
00000050: 1a6d c03e 0cec 843f 6f68 6c3f 6143 5ebe
00000060: 600c 703f 5e66 5d3f 39e9 c4be b6ed 263e
00000070: 52d5 df3e f990 db3e f744 68bf 68be 653e
00000080: e0cf b83d 4844 acbe fdc9 403f 8616 c93d
00000090: e619 12be 4af6 f73d 7a71 e63e bfff edbe
000000a0: 1658 083f 6c01 00bf 2a67 e63d c4c9 1e3e
000000b0: e4af a5bd 713c a83d cfd5 343f a157 bdbd
000000c0: 8a72 09be b070 e6bd 84c1 703f 2188 43be
000000d0: 2ac0 0abf 9777 893f 61d3 33bf 516f 3f3e
000000e0: 5f99 173f b558 9a3e 705e 4abf ccfb 9c3e
000000f0: ae93 1d3f ad69 453f fee0 38bf 7250 36bf

gat_conv.att_dst f4 [1, 4, 16]
-0.15397397 0.6936045 -0.12191828 -0.27988154 0.55066204 -0.352974 0.39664575 0.48893198
-0.11534663 -0.034409117 0.017819218 0.13619465 -0.0585829 -0.59268486 -0.25784066 0.5448205
0.47118217 0.5629676 -0.3864372 0.24373414 0.62122685 -0.21986765 -0.071260594 -0.05246683
0.11286329 0.48665807 -0.20823173 0.15703438 0.26264346 0.34848818 0.23611405 -0.064086705
0.092414856 0.8276271 -0.33192772 -0.43706763 -0.5289103 -0.7675251 -0.4652019 0.23042479
-0.04646711 0.017397048 0.39271405 0.22902805 -0.69594836 -0.61784947 0.1260549 -0.3083998
0.3116191 -0.39874262 -0.055716865 -0.067463964 -0.3555549 0.029647896 -0.40293717 -0.19411416
0.25556695 0.37366125 -0.10329997 0.1252416 -0.09292896 0.492814 -0.05927667 -0.18912454
00000000: 5aab 1dbe 1190 313f 4bb0 f9bd a24c 8fbe
00000010: 30f8 0c3f 02b9 b4be 2715 cb3e 4b55 fa3e
00000020: db3a ecbd 93f0 0cbd 9cf9 913c 9c76 0b3e
00000030: 9ff4 6fbd 32ba 17bf b103 84be 5b79 0b3f
00000040: ca3e f13e a51e 103f 19db c5be 7195 793e
00000050: b908 1f3f fc24 61be 13f1 91bd 75e7 56bd
00000060: de24 e73d 3f2b f93e b33a 55be 9fcd 203e
00000070: 3479 863e 0b6d b23e e2c7 713e e43f 83bd
00000080: 0044 bd3d 5fdf 533f 6ef2 a9be 54c7 dfbe
00000090: aa66 07bf 867c 44bf f22e eebe 7af4 6b3e
000000a0: 4c54 3ebd 4184 8e3c d111 c93e 5486 6a3e
000000b0: ac29 32bf 622b 1ebf 8914 013e 94e6 9dbe
000000c0: 8a8c 9f3e fe27 ccbe 5e37 64bd 8c2a 8abd
000000d0: 4b0b b6be 25e0 f23c c84d cebe ddc5 46be
000000e0: acd9 823e 8750 bf3e ef8e d3bd 563f 003e
000000f0: 8a51 bebd 1e52 fc3e 18cc 72bd dda9 41be

gat_conv.bias f4 [16]
0.06367237 0.033381365 -0.1286277 0.18448022 0.13782665 -0.049283266 0.09200166 0.5970813
0.033991173 0.049881507 0.4074844 0.05099835 0.011260981 0.05593434 0.53057694 0.501132
00000000: a966 823d e6ba 083d fbb6 03be 62e8 3c3e
00000010: 6e22 0d3e 40dd 49bd 5e6b bc3d 52da 183f
00000020: 543a 0b3d 8d50 4c3d cca1 d03e a5e3 503d
00000030: fa7f 383c 681b 653d e4d3 073f 304a 003f

gat_conv.lin.weight f4 [64, 16]
0.106194325 0.53409547 0.13731554 0.008568942 0.35404 0.26481247 -0.23393232 -0.11893629
-0.042149648 -0.14694783 -0.030262299 0.08232173 0.57492167 0.120357096 1.158234 0.010255702
0.19529492 0.13761033 0.6932551 -0.04917216 0.16552882 0.26363322 -0.08118601 -0.4028014
-0.014717307 0.49603093 0.5065484 0.41503385 0.24093391 0.30180407 0.3774269 0.26341298
0.11726698 -0.121525206 -0.0910673 -0.014741446 0.19896413 0.19249219 -0.15066738 -0.5581286
0.008241657 -0.1435407 -0.07576945 0.091579795 -0.51680833 -0.043509293 -0.4298146 0.019220809
-0.079100214 0.15427914 0.3677446 0.0438053 -0.11311192 -0.13978401 -0.16297518 -0.20672859
0.09558169 0.42945918 0.4159228 0.3308836 0.3265159 0.23736699 0.65926397 0.21544057
0.09739147 -0.41174904 -0.10748718 -0.012326634 -0.35994703 0.26725265 -0.19763945 0.5958084
0.64947534 0.27447027 0.13775429 0.07566238 -0.47057202 0.29622194 -0.78617704 -0.0729029
0.24465418 -0.046465505 0.7608565 0.22235683 0.20840241 -0.19588138 0.0031752062 1.3095987
1.2343227 0.17251608 -0.012710709 0.0994374 0.8473752 0.60560393 0.869247 -0.27111745
0.0145559395 0.17813821 0.038105663 0.37738368 -0.09712258 -0.0038483732 -0.21833247 0.96815705
0.75805885 -0.20040661 -0.12434135 0.22132485 0.5304302 -0.124075875 0.7379129 -0.07652751
0.23695348 0.39881393 0.09503777 0.5532765 0.21844456 0.25070342 -0.18703952 -1.1510335
-0.8825555 0.20722532 0.14081779 0.1979763 0.23635344 0.10120796 0.6422214 0.09304357
-0.1638704 -0.39800817 0.06901243 0.13671528 -0.16391589 -0.012088526 0.27686965 0.5848438
0.4891831 0.13629016 -0.008260741 0.008173323 -0.1607777 -0.27170077 -0.1999073 0.26716125
0.1389804 0.060324065 0.6033242 -0.22432113 0.34317175 -0.21868482 -0.11249174 -0.7347519
-0.048088502 0.09946972 0.3090353 0.22956675 -0.029243823 0.22618982 -0.2045232 0.018544009
-0.24333218 0.38334894 -0.25869328 0.4471511 0.17421316 0.26853058 -0.07426674 -0.459172
-0.64497054 0.2724352 -0.099753544 0.3577333 -0.2316089 -0.120355085 -0.21947382 -0.16227734
-0.032985095 0.0031307966 0.41257098 -0.010642279 0.100839026 -0.2586407 -0.23185481 0.8446938
0.8403324 -0.11162248 0.080170214 0.1568099 0.83838344 0.1250197 0.6677408 -0.16757375
-0.17591436 0.062786 0.9884737 -0.06242113 0.35661122 0.22631526 0.14314264 0.7482519
1.1825404 0.014501669 0.11442979 0.03638545 1.1078532 0.70606416 1.1078732 0.2604359
0.23580748 0.1634843 0.693833 -0.22022203 0.3089215 -0.17762983 -0.08736792 -0.042830225
-0.029862795 -0.09010426 0.058767516 0.26212877 0.6149166 0.38471448 1.0998828 -0.12151501
0.100321785 -0.046427976 -1.0775753 0.4676675 -0.13323498 -0.14886361 -0.044012 -0.9652822
-1.2789413 0.27764058 0.202706 0.0069748904 -1.9844556 -1.0417172 -1.5777599 0.11310298
-0.22887689 0.44343224 -0.4314189 0.60741925 0.3529585 0.14781107 0.047900982 -0.6433201
-0.9467396 0.07392358 -0.122952834 0.16147174 -0.46268958 -0.5576354 -0.5037881 -0.20550723
00000000: 697c d93d 7bba 083f 729c 0c3e bf64 0c3c
00000010: bb44 b53e 8095 873e f48b 6fbe df94 f3bd
00000020: 1ca5 2cbd 7e79 16be a4e8 f7bc 4c98 a83d
00000030: 112e 133f c87d f63d 0341 943f 8807 283c
00000040: 64fb 473e b9e9 0c3e 2b79 313f bf68 49bd
00000050: 6380 293e effa 863e da44 a6bd fc3b cebe
00000060: dc20 71bc c4f7 fd3e 28ad 013f 517f d43e
00000070: 61b7 763e 1086 9a3e 193e c13e 11de 863e
00000080: ac29 f03d 35e2 f8bd 7e81 babd 1b86 71bc
00000090: 41bd 4b3e ac1c 453e 8d48 1abe 84e1 0ebf
000000a0: 0408 073c 55fc 12be 032d 9bbd 308e bb3d
000000b0: 8d4d 04bf cd36 32bd a910 dcbe f574 9d3c
000000c0: 4bff a1bd 5afb 1d3e 0549 bc3e 306d 333d
000000d0: 39a7 e7bd 8a23 0fbe f7e2 26be a9b0 53be
000000e0: 55c0 c33d 13e2 db3e d5f3 d43e 9369 a93e
000000f0: 182d a73e 5510 733e 86c5 283f 749c 5c3e
00000100: 2e75 c73d c5d0 d2be 3d22 dcbd a6f5 49bc
00000110: fa4a b8be 57d5 883e ff61 4abe e686 183f
00000120: 0444 263f 5e87 8c3e 760f 0d3e e1f4 9a3d
00000130: d1ee f0be 67aa 973e e642 49bf 1e4e 95bd
00000140: a086 7a3e 9d52 3ebd 7ec7 423f 82b1 633e
00000150: 7167 553e 2195 48be 1f17 503b eea0 a73f
00000160: 49fe 9d3f 0ea8 303e 9440 50bc d6a5 cb3d
00000170: 95ed 583f dc08 1b3f f986 5e3f e8cf 8abe
00000180: 097c 6e3c dd69 363e af14 1c3d 6f38 c13e
00000190: 34e8 c6bd fd34 7cbb 8c92 5fbe 24d9 773f
000001a0: 2510 423f 6437 4dbe ada6 febd fba2 623e
000001b0: 46ca 073f 7e1b febd dce7 3c3f 75ba 9cbd
000001c0: efa3 723e 5731 cc3e 2aa3 c23d 87a3 0d3f
000001d0: eeaf 5f3e 335c 803e 4a87 3fbe 1155 93bf
000001e0: 28ef 61bf e032 543e 8a32 103e 4dba 4a3e
000001f0: a306 723e 1e46 cf3d 9f68 243f a18d be3d
00000200: a4cd 27be bac7 cbbe 6456 8d3d 17ff 0b3e
00000210: 91d9 27be f40e 46bc dcc1 8d3e 53b8 153f
00000220: 3576 fa3e a68f 0b3e 0f58 07bc 67e9 053c
00000230: e9a2 24be 5d1c 8bbe 80b4 4cbe 5cc9 883e
00000240: e150 0e3e 5e16 773d 7473 1a3f 70b4 65be
00000250: 35b4 af3e eaee 5fbe 1262 e6bd b318 3cbf
00000260: 73f8 44bd c8b6 cb3d e039 9e3e 8c13 6b3e
00000270: be90 efbc 4e9e 673e 886e 51be 9be9 973c
00000280: 122c 79be 5046 c43e 7273 84be fdf0 e43e
00000290: ef64 323e d77c 893e 2919 98bd 9818 ebbe
000002a0: ca1c 25bf a07c 8b3e 964b ccbd d228 b73e
000002b0: e22a 6dbe ba7c f6bd bfbd 60be 082c 26be
000002c0: 611b 07bd 0d2e 4d3b 813c d33e f45c 2ebc
000002d0: b184 ce3d 8e6c 84be 596b 6dbe da3d 583f
000002e0: 0620 573f 549a e4bd 4830 a43d c692 203e
000002f0: 4ca0 563f 2a05 003e 10f1 2a3f 7498 2bbe
00000300: e522 34be f295 803d 9d0c 7d3f 4cad 7fbd
00000310: bf95 b63e 30bf 673e fc93 123e 708d 3f3f
00000320: 7c5d 973f 6998 6d3c 2a5a ea3d e908 153d
00000330: 22ce 8d3f 9fc0 343f cace 8d3f db57 853e
00000340: 8477 713e 6e68 273e 0a9f 313f e281 61be
00000350: f52a 9e3e 98e4 35be f4ed b2bd bf6e 2fbd
00000360: d2a2 f4bc 9588 b8bd 35b6 703d be35 863e
00000370: 2d6b 1d3f 4cf9 c43e f6c8 8c3f dddc f8bd
00000380: 8275 cd3d 432b 3ebd fded 89bf 1d72 ef3e
00000390: c06e 08be b46f 18be ed45 34bd bc1c 77bf
000003a0: 59b4 a3bf e826 8e3e 2992 4f3e 9f8d e43b
000003b0: a402 febf fd56 85bf 09f4 c9bf 89a2 e73d
000003c0: b45e 6abe 8d09 e33e f0e2 dcbe d47f 1b3f
000003d0: fab6 b43e c95b 173e d233 443d a0b0 24bf
000003e0: 875d 72bf 3f65 973d b2ce fbbd d958 253e
000003f0: a6e5 ecbe 32c1 0ebf 42f8 00bf 7d70 52be

action_head.weight f4 [4, 16]
0.97723234 0.36539572 0.10551299 0.4579999 -0.99370587 -0.15472965 -0.36368155 0.28130117
-0.85986716 0.6033577 0.10036804 -0.3179711 0.46501306 0.726663 -0.78189415 0.04270023
-0.45032358 0.16131125 0.49636135 -0.3530635 0.7610913 0.55359674 0.113834284 -0.95687133
0.8640041 0.45720556 -0.5451687 0.51206094 0.527641 0.014457152 -0.75218177 -0.5654727
-0.5456602 -0.32215077 -1.2271683 -0.2770731 -0.79172224 -0.9449584 0.06100469 0.59629065
-0.087274745 -0.78153604 0.61784095 -1.4743606 -1.6508015 -0.9074406 1.2750548 0.735046
1.6664408 -0.5287888 0.38666964 -2.074033 -0.4164393 0.17795207 -0.3044102 -0.978902
-0.4618021 -0.58280563 -1.7359383 1.9091326 1.2191064 0.8590468 -0.64126533 -1.4663887
00000000: e62b 7a3f 2615 bb3e 3217 d83d f77e ea3e
00000010: 8263 7ebf 7371 1ebe 7834 babe b506 903e
00000020: 4120 5cbf a675 1a3f c28d cd3d 1ccd a2be
00000030: 3116 ee3e 9606 3a3f 372a 48bf 70e6 2e3d
00000040: d090 e6be c72e 253e 1323 fe3e bdc4 b4be
00000050: e1d6 423f 84b8 0d3f f321 e93d 85f5 74bf
00000060: 5f2f 5d3f d916 ea3e 2d90 0bbf 6d16 033f
00000070: 7b13 073f b1dd 6c3c fc8e 40bf d2c2 10bf
00000080: 63b0 0bbf f2f0 a4be da13 9dbf 86dc 8dbe
00000090: 4fae 4abf cbe8 71bf 0ee0 793d 81a6 183f
000000a0: 1abd b2bd bf12 48bf d32a 1e3f d9b7 bcbf
000000b0: 774d d3bf 074e 68bf ff34 a33f fa2b 3c3f
000000c0: ef4d d53f b45e 07bf 90f9 c53e f5bc 04c0
000000d0: 8837 d5be 1139 363e a7db 9bbe 5299 7abf
000000e0: 5371 ecbe c032 15bf 3a33 debf 755e f43f
000000f0: ae0b 9c3f 7eea 5b3f f729 24bf a0b2 bbbf

action_head.bias f4 [4]
-0.06518043 -0.30303347 0.2734407 -0.051170047
00000000: 517d 85bd 3427 9bbe 6b00 8c3e af97 51bd
