src/model_weights.pth (torch, 26968 bytes, 14 tensors)

gat1.att_src f4 [1, 4, 16]
00000000: d04a 33bf 99a0 31be 146e 24bf 4c49 0d3f
00000010: 4989 c03d 0c28 e13e 1873 193e 88ef e83e
00000020: 2222 bf3e 3c6c cbbe ed12 32be b768 38bf
00000030: f7c4 11be 4217 823e cd78 b6be 111d 2ebe
00000040: 68b1 273d 4af5 1e3e b844 08bf 9ec2 363f
00000050: d297 813e 9f29 973e 4595 8cbd f9e0 68bd
00000060: 61aa fbbd 9819 933e 676a a83e 1490 543f
00000070: b8b5 d5be c5b9 ae39 62c7 d83e ed80 18be
00000080: 31ec 4fbe 9605 dfbe 5731 e5bd 2857 31be
00000090: e1ef b3bc 10b1 ca3e b0eb e23e d76c 0e3e
000000a0: 1abc c43e 8641 c4be 31bf c2be 9974 b8be
000000b0: d66a 123f 7b41 ea3d 20ed 54be 0c66 073f
000000c0: 3795 d43d aada 153f 5fbe 343f f9bc c63e
000000d0: 1601 ca3e 4b07 b7be 9987 a13e cd99 6cbd
000000e0: 51c3 a23e 82b8 1f3e 2482 003f 4951 5fbe
000000f0: 3bf2 273f e487 13bf 629b 993e 08b0 bbbe
-0.7003603 -0.1734642 -0.64230466 0.5518997 0.09401185 0.43975866 0.14985311 0.45495248
0.3733073 -0.39731014 -0.17390032 -0.7203478 -0.14235292 0.2540837 -0.3563904 -0.17003275
0.040940672 0.15523258 -0.53229856 0.7139071 0.25311142 0.29523942 -0.068644084 -0.056855176
-0.122883566 0.28730464 0.3289368 0.83032346 -0.41740203 0.00033326275 0.42339617 -0.14892931
-0.20304944 -0.4355895 -0.111910515 -0.17318404 -0.02196497 0.39588213 0.4432044 0.13908707
0.3842476 -0.3833124 -0.38036492 -0.36026457 0.5719427 0.11438271 -0.20793581 0.52890086
0.10380023 0.5853678 0.70602983 0.3881605 0.39453954 -0.35747752 0.31548765 -0.057763863
0.3178964 0.15597728 0.5019858 -0.21808352 0.6560399 -0.5762923 0.3000136 -0.3665774

gat1.att_dst f4 [1, 4, 16]
00000000: 5387 d73e 16af 043f 5a4d e23e 01fa 98be
00000010: a81c a93d ea7e 2f3e 900d 96be 36e9 5dbe
00000020: 8e31 16bd bd83 01be bace 01bf e19a 6ebe
00000030: 42a5 093f 9f44 973e b380 52be b1b9 77be
00000040: de67 213e bf75 473d 657f 203e 684c d4be
00000050: 16ea c73e 3983 4cbe 79c5 8c3e 2120 043e
00000060: 5e3c ffbb 7e31 2e3d 635e a93e 972f e63e
00000070: decf c23e c307 73be 5a12 b73d 05ed 05bf
00000080: 82de bcbe dec4 c63d b1fa c03e 25ed 02bf
00000090: d9b5 ffbd c4b7 613e 2941 e53d 5c42 b7be
000000a0: 4dd8 153f 4aef 83bd 9960 f2bd 6658 16bf
000000b0: affd 4d3b a735 fe3e 189a 63bd 500c 9fbe
000000c0: 0d67 083f 8664 cc3e 12ec b5be ea82 9d3e
000000d0: ac14 5c3e bd55 e93e 9b7d 12bf 10c3 82be
000000e0: 9573 f83e b5ac 103f 634a 30bf f5f6 bc3e
000000f0: 3a2b 863e d552 e9be d13f 213d f839 c03e
0.42095432 0.5182966 0.4419964 -0.29878238 0.08257419 0.17138258 -0.29307222 -0.21670994
-0.036668353 -0.1264791 -0.50706065 -0.23301269 0.5376779 0.2954454 -0.20556907 -0.2419193
0.15762278 0.048696276 0.15673597 -0.41464543 0.3904578 -0.19971932 0.2749441 0.12902881
-0.0077891788 0.04252767 0.33079824 0.44958183 0.38049215 -0.2373343 0.08939047 -0.5231479
-0.3688851 0.09705518 0.37691262 -0.51143104 -0.124858566 0.22042757 0.11194069 -0.35792816
0.58533174 -0.06442125 -0.11834831 -0.58728635 0.0031431725 0.49650308 -0.055566877 -0.3106408
0.53282243 0.39920443 -0.3553167 0.30763942 0.2149226 0.45573226 -0.5722291 -0.25539446
0.48525682 0.5651353 -0.68863505 0.36907163 0.26204854 -0.45571008 0.0393675 0.37544227

gat1.att_edge f4 [1, 4, 16]
00000000: 79b9 ec3e 4c40 03be 569d 623d ffc1 5a3e
00000010: 9441 e53e 59a7 00bf 81e8 083f 5106 07bf
00000020: 7ac8 c53e 077d 163e 7c89 01bf b9a8 e83d
00000030: f514 09bf c81a 203e 2b2a 4abd 1075 f9bd
00000040: 7193 d8be ee78 713d 3ea5 eb3d 6732 5d3e
00000050: 49bc 02bf 371b ecbe 0cc0 d9be 7fe8 9f3e
00000060: df18 47bd 0418 f13e 1583 a23e c13c 933e
00000070: 9228 f9be 75e2 eabd 803b f63e 4dac 92be
00000080: 33be cc3e 0ac8 843e 4f43 a4be 5851 0ebe
00000090: f45e 53bd 5472 ac3e 9e0a f6be fdc0 b23e
000000a0: 1cd7 55be cffa 1d3e d516 673e e3a1 aabe
000000b0: 3eb2 2f3e 798e b9bd 4654 9e3e 25d1 803c
000000c0: 5c73 f63e 760d bc3d d91e e63a 3f83 a7be
000000d0: 7e0d 8e3e 83f8 943e e721 b7be 3843 323d
000000e0: 78cf 2c3e 7392 073f af57 3d3e 7847 ef3e
000000f0: b308 c93c 41ab e83d 52b7 c93d 8925 013f
0.46235254 -0.12817496 0.05532583 0.21363066 0.44776595 -0.5025535 0.5347977 -0.52744013
0.38629514 0.14696132 -0.5060041 0.11360306 -0.535476 0.15635216 -0.04935662 -0.12180531
-0.4229999 0.05895322 0.11506127 0.21601258 -0.5106855 -0.46114513 -0.42529333 0.31232068
-0.048607703 0.47088635 0.31740633 0.2875729 -0.48663765 -0.114689745 0.4809227 -0.2864708
0.3998886 0.25933868 -0.32082602 -0.13898218 -0.051604226 0.33680975 -0.48054975 0.34912863
-0.20882839 0.15427707 0.22567303 -0.33326635 0.17157838 -0.09060378 0.3092367 0.015724728
0.48134887 0.09182255 0.0017556801 -0.3271732 0.2774467 0.2909585 -0.35768053 0.043521136
0.16876018 0.5295784 0.1849048 0.46734214 0.02454028 0.11360789 0.09849419 0.504479

gat1.bias f4 [64]
00000000: 1519 3a3e 0514 a8b8 fa70 89bc d7a7 933b
00000010: b5c5 c4bb 4b6b c93b 33d9 0a3b b14c c439
00000020: 650b afbb 16f8 983d 73b6 89bc 9507 ca3d
00000030: 2616 c63a 25d7 cf3c 8f8b 833d 9b3b 7a3d
00000040: 99e2 e3bc 8597 61bd 9911 d1ba 026d a6bc
00000050: cb5a 8a3b 506a 7cbb efce f13d eaa5 083d
00000060: b7ba 613b 30da a73d b3c2 44bc 0de7 cab9
00000070: 889a 433e 1044 3b3d 8be7 013d 68b3 433d
00000080: 1631 2f3c b879 8f3b 7a83 313d 1cc8 02bd
00000090: a649 ff3d 2d32 d43a a82f 833d e175 a93c
000000a0: 9418 913d 08dc b03d ec5d 283d 054c c03d
000000b0: 0030 9d39 6e57 f0bb efb1 b83d 87be d73a
000000c0: 4afa 063c c6cf d23c 934f 663c d9e2 3d3d
000000d0: a85d 053d 8db2 f83b f2b9 b33b 70d8 b73d
000000e0: 1f2d f3bc 816b b03c 5cfa 3c3c d895 c6bc
000000f0: e0bd eabc b946 1d3b 7238 973c 0d3f 8c3d
0.1817363 -8.014593e-05 -0.016777504 0.004506092 -0.006005014 0.0061468235 0.002118659 0.00037441173
-0.0053419345 0.07469194 -0.016810631 0.098647274 0.0015112802 0.025371144 0.06423103 0.061092
-0.027818011 -0.05507614 -0.0015950679 -0.02031565 0.004222249 -0.0038515516 0.118070476 0.033361353
0.0034443566 0.08195913 -0.012009311 -0.0003870059 0.19101918 0.045719206 0.031714957 0.047778517
0.010692855 0.0043785237 0.043338276 -0.03192912 0.12465219 0.001618927 0.06405574 0.020686092
0.07084766 0.08635718 0.041105196 0.093894996 0.00029981136 -0.007334641 0.09018313 0.001645998
0.0082383845 0.02573384 0.014057058 0.046358917 0.03256002 0.0075896443 0.005484813 0.08976829
-0.029684601 0.021535637 0.0115343 -0.024241373 -0.028654993 0.0023998453 0.018459532 0.068479635

gat1.lin.weight f4 [64, 9]
00000000: 136a 2ebe d078 84bd a5e8 54be a43e a53d
00000010: 5590 c53e 611d 04bf 5a39 b13e 8339 973e
00000020: f661 913c f7e8 863e 3b0f 453e aaca ae3e
00000030: df26 ca3c adb9 3a3d 857d a23e 0894 163e
00000040: c46e 01be de38 a53c a768 ffbd eefc 67be
00000050: d8e0 0dbe c62a 3dbd d8dc 5c3e 814c a8be
00000060: 1628 3e3e 59a3 9cbe fe50 5c3e e87e 1d3c
00000070: 2e1c 61be 09e4 3b3e 0c0d 3d3e b082 1ebe
00000080: 087a 0f3f ea09 8ebe e502 dbbd e8ad b13d
00000090: 3e0e 8a3e 6807 55be d741 5f3e 811c a43e
000000a0: 9ced 01bf ce05 da3e 0012 6fbe 65dd 7fbe
000000b0: ea9f 4a3e 1736 973c abb9 45be df30 cebd
000000c0: f06f 66be 32dd dd3d 9884 ca3e 2c7f 13bf
000000d0: 609b 503e 9694 0e3d 100d 1cbe 8543 3f3d
000000e0: aae2 083e 42e2 b23e 71c4 1cbe a990 f33e
000000f0: fab4 a8be e7f4 83bd 4e05 8bbd 7fea bebd
00000100: e26f dc3c 6547 2fbe 7539 27bd 2840 04bf
00000110: 7bd4 eb3d da91 aabe 0fef 8fbd 116b 93be
00000120: 133a ac3d 4c98 29be 6c38 a23e 1c31 9c3d
00000130: 69fe c8be e329 0e3f 05ed 6abd 30e8 c0bd
00000140: afd0 9ebd bff6 e2bd 93db 7bbb a94b 25be
00000150: 1163 183e abb1 b83e 7201 89be 8c60 9f3e
00000160: aa77 883d 4d44 663e b4d9 493c 8cfb 90bc
00000170: 6a22 40be 741c ea3d 0ddf d53e 283c 4c3a
00000180: ccf5 193d 66dc 56be 37a8 98bd 5b3d b1bd
00000190: 34ce 033e 4da4 58bd 03ab cabd b4dc 853c
000001a0: 5218 cfbe ee86 103f 5955 b93e 406f 1d3e
000001b0: 79ca 423d 6b4d 80bd b0ee 6b3e 315b 983e
000001c0: ed62 8fbe b673 843e 3b34 d5be 9c33 913d
000001d0: 7c25 55bd 18e8 f6bd cedc 8abe 4630 3e3c
000001e0: 54bd 633c 5e65 04bf d451 b73e c7a3 73be
000001f0: 7677 88be 81f3 33bd 0b63 d4bc 8dad 813d
00000200: c895 bc3d 4b74 80be c3c0 063f 2f2b fbbe
00000210: 1814 853e 3904 a53e d8d9 633e fe0f 403e
00000220: 6a02 953e 48f8 ec3d 536d ae3b 4cc6 ff3d
00000230: 3774 e5be fe22 76bd 27ea 243e f900 16be
00000240: b9a0 253e bccf 563e 7961 5ebe 0ab1 d03d
00000250: 4974 babc 64a4 163f 3b74 3dbe c46c 24be
00000260: 43cc ee3d 8ba3 63be b20c 313e ff6a 0cbe
00000270: 2392 a53e 3077 c7be 6fff e63e f506 ecbd
00000280: 5c2a 78bd f26c 8dbe 48cf cfbd c9e9 8dbe
00000290: 9815 c3bd e6c5 c8bc 48e3 3f3e 9bc2 cebe
000002a0: e7d8 693e b1c5 4bbe d9c8 63bd 3582 6ebe
000002b0: 4e9d 9ebd f65c c73e 90fb 49bd fa9c 45be
000002c0: 07bb 1c3f d07e 02bf 8efb 2fbd eef7 943e
000002d0: 5e48 08be 2f89 43be 3fff 663e dd22 1cbe
000002e0: 313d 113e eaa4 f93e 700b a4be 1865 203e
000002f0: 33c1 d53e 1e6c 0a3d 492f e43d 2065 16be
00000300: 5025 85be 0f54 09bb a0c8 ad3e 02fd babe
00000310: 4c65 15be 5678 4ebe 9d0c bc3e 827a b63d
00000320: 559a b8bd 491b abbd c998 cc3e 4d79 f2be
00000330: 468d 3d3e 3d4d f3bd b56a 79be 01f7 29be
00000340: 3991 813e 7f12 dd3d 51cc a2be b3d4 753e
00000350: 2d32 04bf 0b0b 993e 1c19 5a3e ed56 193e
00000360: bcfd bcbc ceb8 8f3d 20a5 04bd 605e 9c3e
00000370: 0d28 4b3e b9dc 803e 1ccf c8be a61f a33e
00000380: 52fb 18be 6020 283e 208a c13d cd31 a0bc
00000390: 726d b63d be57 50be 04f2 873e 2469 efbc
000003a0: 82fe 53bd c88f 84be 56b2 073e 19e0 29be
000003b0: 96b2 213e 5f51 43be 7e4e 89bd 13c0 6f3e
000003c0: 959d e7be 58ed 9e3d 9376 183d ca4b ca3d
000003d0: 0a7f 7c3e 6613 903e dd8e e9bd db4e d8bd
000003e0: 1eae 0c3f 64d5 95be c501 283e 5cea b8bc
000003f0: 2618 2c3d 333b b63e 3b6a aebe e8ff db3d
-0.17032652 -0.06468356 -0.20791872 0.080685884 0.3858668 -0.5160733 0.34614068 0.29536065
0.017746907 0.26349613 0.19244091 0.34138995 0.024676738 0.04558723 0.3173639 0.14704907
-0.1263991 0.020168718 -0.12471133 -0.22655079 -0.13855302 -0.04618337 0.2156862 -0.32870868
0.18569979 -0.30593374 0.21515271 0.009612776 -0.21983406 0.18348707 0.18462008 -0.15479541
0.5604558 -0.2774194 -0.106939115 0.08675748 0.2696399 -0.20803607 0.2180246 0.32052997
-0.5075319 0.42582554 -0.2334671 -0.24986799 0.19787565 0.01845841 -0.19309108 -0.10067915
-0.22503638 0.10833205 0.39554286 -0.57615924 0.20371771 0.03480967 -0.15239358 0.04669525
0.13367715 0.34938246 -0.15309311 0.47571304 -0.32950574 -0.06443196 -0.06788121 -0.0932207
0.026908819 -0.17117079 -0.04082628 -0.51660395 0.11515137 -0.333144 -0.07028019 -0.28792623
0.08409514 -0.16562003 0.3168367 0.07626554 -0.392566 0.55532664 -0.057354946 -0.09419286
-0.07754647 -0.11082219 -0.0038430437 -0.16142143 0.14881541 0.3607305 -0.26758915 0.31128347
0.06663449 0.22486992 0.012319971 -0.017698072 -0.18763128 0.11431208 0.41771737 0.00077909464
0.037587926 -0.20982513 -0.074539594 -0.08654281 0.12871629 -0.052891064 -0.09895899 0.016340591
-0.40448242 0.56455886 0.36197928 0.1537447 0.047556374 -0.06264766 0.23040271 0.29757074
-0.28005162 0.2586953 -0.4164141 0.07089922 -0.0520377 -0.12055987 -0.27121586 0.011608189
0.01390012 -0.51717174 0.35804617 -0.23792945 -0.2665364 -0.043933395 -0.025926134 0.0633193
0.09208256 -0.25088724 0.5263788 -0.49056384 0.25991893 0.32229784 0.2225107 0.187561
0.29103404 0.115707934 0.005323091 0.12488994 -0.44815227 -0.060091965 0.16104947 -0.14648809
0.16174592 0.20977682 -0.2171687 0.101900175 -0.022760527 0.5884459 -0.1850137 -0.16057116
0.116600536 -0.22230355 0.17289999 -0.13712691 0.32338056 -0.3895812 0.45116755 -0.115247644
-0.060587272 -0.2762218 -0.10146958 -0.27717426 -0.09525603 -0.024508428 0.18739045 -0.40382847
0.22836648 -0.19899632 -0.055611465 -0.23291858 -0.07744847 0.3893811 -0.049312174 -0.19298163
0.6122288 -0.5097475 -0.04296451 0.29095405 -0.13308856 -0.190953 0.22558306 -0.15247674
0.14183499 0.48758632 -0.32039976 0.15663564 0.41748962 0.033794515 0.111418314 -0.14687014
-0.2600503 -0.0020954644 0.33942127 -0.36521155 -0.14589423 -0.20163092 0.36728373 0.08910085
-0.090138115 -0.083548136 0.39960316 -0.4735817 0.18510923 -0.118799664 -0.24357112 -0.16598131
0.2530611 0.107945435 -0.31796506 0.2400692 -0.5163906 0.29891238 0.21298641 0.14974566
-0.023070209 0.070176706 -0.032384038 0.30540752 0.19839497 0.25168398 -0.39220512 0.31860083
-0.14939621 0.164186 0.094501734 -0.019554997 0.08907594 -0.20345971 0.2655183 -0.02922494
-0.05175639 -0.25890946 0.13251624 -0.16589393 0.15790781 -0.1907401 -0.06704424 0.23413114
-0.45237413 0.077601135 0.037222456 0.09877737 0.24657837 0.281398 -0.11404202 -0.105619155
0.5495318 -0.29264367 0.16406925 -0.022572689 0.042015217 0.3559204 -0.34065422 0.107421696

gat1.lin_edge.weight f4 [64, 2]
00000000: 020e 5ebe 382e 3f3e c591 5b3e 8374 383e
00000010: 7b4e f5bb d358 ba3c 0f5d 8abe c297 373e
00000020: 2c39 853e 04e2 2dbe 882d 033e fd19 833e
00000030: 9edd 8e3e 196f 3abe 8a92 16be 8b59 453e
00000040: 504a 3f3e 3a44 dfbd c15e 793e 7909 84be
00000050: ad6a 333e e691 dd3d 09ab 573e 38f7 b43b
00000060: 41c6 94bd 1697 87be ee0b adbd 4b53 dbbc
00000070: 6f1d 17be 6862 80be 3855 7f3e e1a1 713d
00000080: a8a5 833c f39f 18bc edca 343e 2158 823e
00000090: b7da 713d 5e5b 8abe 4a6e bbbd 1a09 65bb
000000a0: fb0e 983d 3165 11be 8092 8cbe b178 58be
000000b0: bfc0 f1bd 5648 f33c c4a0 ad3d d177 083e
000000c0: fbc8 92bc 7d5c 8f3c 8a3f 923e 7e32 8ebe
000000d0: 7122 6abe 3d16 863d c228 88be 495d 373e
000000e0: b76f f03d 2f7d 6e3d b361 5cbe de09 0b3c
000000f0: 922b a23d 239e 8bbe 9cbe 99be acbe 083b
00000100: 5ad2 27bc d533 e13d 52e1 5f3e 5aa9 97bd
00000110: 1916 6a3e 6105 503e e4fc 853e a4c2 37be
00000120: b2fd 60be f11e 88be 43fb 26bd 1b6c 923e
00000130: 3997 80be ddd8 86be 70d4 f93c 6584 28bc
00000140: d186 073e a8c0 94bd 2770 4c3d a625 47bc
00000150: e900 1cbd 7116 46bd 4e37 8cbc ad63 89be
00000160: 90a3 53be bc14 25bc 4998 9abd 41d4 f23d
00000170: 4f7c 103e 707b a63d a749 13bd 001b 293c
00000180: c6a1 793e dabe 38be b085 813e d708 943e
00000190: 0835 113e 2b5c 00be 5cd7 75be 86e3 963b
000001a0: 168d 6cbe d5d7 883e 1489 493e 146f a63d
000001b0: 7035 cfbd 8d51 4ebb 20ba e3bb ce33 843e
000001c0: ddc5 bc3c 0b4a 573e 663c 883e 4bf2 10be
000001d0: 243d e03d 009d 0e3e 6bbe 82be b483 733e
000001e0: 9838 82be ecef 8e3e 53ff 8d3e 97cf 60be
000001f0: 4cca 063e a236 01be 0f46 80be a15b fc3c
-0.21685031 0.18669975 0.21442325 0.18013196 -0.0074861622 0.022747433 -0.27024123 0.17928985
0.2602018 -0.1698075 0.12810338 0.25605765 0.27903455 -0.18206443 -0.14704338 0.19272439
0.18680692 -0.10901685 0.24352552 -0.25788477 0.17521162 0.108188435 0.21061338 0.005522635
-0.072643764 -0.26482457 -0.08449541 -0.026773116 -0.14757322 -0.25075078 0.24934852 0.05899227
0.016070202 -0.009315479 0.17655535 0.25457862 0.059046473 -0.27022833 -0.09151895 -0.0034948052
0.07424732 -0.14198758 -0.2745552 -0.2113979 -0.118043415 0.029697578 0.08477929 0.13326956
-0.0179181 0.017500157 0.285641 -0.27772897 -0.22864701 0.0654721 -0.26593596 0.17906679
0.11740058 0.058224853 -0.21521644 0.008486239 0.07918467 -0.27269086 -0.30028236 0.0020865602
-0.010243023 0.10996214 0.21863297 -0.07405348 0.22859992 0.20314552 0.26169503 -0.17945343
-0.21971777 -0.26586106 -0.040766966 0.28598103 -0.25115374 -0.2633733 0.030496806 -0.010285472
0.13235022 -0.07263309 0.049911644 -0.012154972 -0.038086805 -0.048361246 -0.017116215 -0.2683386
-0.20667863 -0.010075744 -0.07548577 0.118568905 0.1410992 0.081290126 -0.035958912 0.010321379
0.24378118 -0.18041554 0.25297308 0.28912994 0.14180386 -0.1253516 -0.24007934 0.0046047596
-0.23100695 0.26727167 0.19681197 0.08126655 -0.10117614 -0.0031481714 -0.006949678 0.25820774
0.023043567 0.21024339 0.2660858 -0.14154927 0.10949162 0.13927078 -0.25535902 0.2378071
-0.25433803 0.2791742 0.2773386 -0.21954189 0.13163108 -0.12618497 -0.2505345 0.03080541

gat2.att_src f4 [1, 4, 16]
00000000: 4bc0 86be 4c52 eabe 9d53 b9be 8173 92be
00000010: 1882 6ebe 0a08 e8be 78ed 003f cc14 7f3b
00000020: f9b9 c2b9 7737 e9bd 7439 ab3e 9a5c 16be
00000030: 65f9 d13e acf1 21bf 731a d7be aee7 d33e
00000040: ad9c 7cbe 0d8f 4fbe 0a38 0e3f e455 8a3d
00000050: aeea 4a3f 7ecb ca3e d8a0 b63d 8a83 b73e
00000060: 2fec efbe 0337 c7bd 9754 0d3f 1d14 f13d
00000070: 44c3 09bf 9a09 f4be 2161 b1bd 38d7 91be
00000080: effa 13bf 2886 bebe 6bf1 f83e b770 9e3e
00000090: fe98 c23e 944a d9be 317d 573e 118c 6d3a
000000a0: 914a 053e 14c0 c8bc 6742 ddbe 6825 82be
000000b0: cedd 00bf 714a e03e ada5 d03e fd00 d6bd
000000c0: 6e86 5ebe e8e6 2ebe 2c8b 02bf ca7c a73e
000000d0: aea9 e6be f9c7 05bf 0796 d7be 8bf3 453e
000000e0: b43c d03c 39a7 edbe a74b 923e bc4e adbe
000000f0: bf21 5e3e 5602 123c 1c8f 963d ea37 423d
-0.26318583 -0.45765913 -0.36196604 -0.28603747 -0.23291814 -0.45318633 0.5036235 0.0038922308
-0.00037141124 -0.11387532 0.3344227 -0.14683762 0.41010585 -0.63259387 -0.42012367 0.41387695
-0.24669142 -0.20269413 0.5555426 0.067546636 0.7926434 0.39608377 0.08917397 0.35842544
-0.4685988 -0.097272895 0.552072 0.117714144 -0.53813577 -0.47663575 -0.08661104 -0.2848451
-0.5780477 -0.37211728 0.48621687 0.3094537 0.3800735 -0.4243971 0.2104385 0.0009061704
0.13016726 -0.024505652 -0.43214723 -0.25419164 -0.5033845 0.43806794 0.407514 -0.10449407
-0.21730968 -0.17080271 -0.5099361 0.32712394 -0.4505133 -0.5225826 -0.4210665 0.19331186
0.02541957 -0.46416643 0.28573343 -0.33849132 0.2169256 0.00891169 0.07351515 0.047416605

gat2.att_dst f4 [1, 4, 16]
00000000: a5dd d43e a92f 13bf 09be e6be 8074 8d3d
00000010: 07be f4bd 3858 0cbf 6f2e 0abc a83a e8be
00000020: 0fb9 df3e 2e8f 033f 1916 2dbe 9959 b2be
00000030: c96f c2be 5ac7 acbe 7170 48be da3a 743c
00000040: 5b03 07bf ea0d 173e bfa8 ef3e 9193 01be
00000050: 882c 6f3c 4195 5abb 0ee8 c9bd 84cc cdbb
00000060: bd36 3bbe 0701 e03e d07e 153e 2cef 95be
00000070: 8489 91be 75a4 8ebd 63d0 4bbe e5a6 8fbe
00000080: c616 33be 2bc4 40bd 3f8a e8bd 588b d4be
00000090: 2ed1 6f3e 2074 ce3e bd67 03bf 1d4f 003f
000000a0: cd47 0c3f 3264 063e a93f e63e 4094 dc3e
000000b0: 3d72 203e b828 ed3e af95 043f 673e 013f
000000c0: b013 4a3e aff7 d43e cc4e abbd 6458 293d
000000d0: 7509 3d3e dc02 f1bd 642b 203d 63db 4d3d
000000e0: fa0d de3e ed6e fdbd ae18 b83d 7fab 3d3e
000000f0: f172 263e 7e8e 95be ec0f 05bf 3865 cfbd
0.4157535 -0.574946 -0.4506686 0.06906986 -0.11950307 -0.5482211 -0.008433922 -0.4535725
0.43695876 0.5139035 -0.16902961 -0.34833983 -0.3797591 -0.33745843 -0.19574143 0.014906609
-0.52739495 0.14751402 0.4680843 -0.12653948 0.014598019 -0.0033353122 -0.09858714 -0.0062804837
-0.182826 0.43750784 0.14599156 -0.29284036 -0.2842523 -0.069649614 -0.19903712 -0.28057018
-0.17489156 -0.04706208 -0.11354493 -0.4151256 0.2341964 0.4032297 -0.5133017 0.5012072
0.5479706 0.13124159 0.44970444 0.43081856 0.15668578 0.46320128 0.517909 0.50485843
0.19734073 0.41595218 -0.08364639 0.04134406 0.18460639 -0.117681235 0.03910388 0.05025805
0.43370038 -0.12374673 0.08989082 0.18522452 0.16254784 -0.29210275 -0.5197742 -0.10126728

gat2.att_edge f4 [1, 4, 16]
00000000: 06ab d23e 5c3a 9cbd ee0e fbbd eff1 b3bc
00000010: d2a1 debc 7a8a bcbe d99d 58be 50db f0be
00000020: 56d9 c03e 7ec6 443e e3fd a9be d41d 99be
00000030: 4625 c7be 542c e73a 8783 a93e 2a25 e0bd
00000040: f543 b9be f0c3 143e ad25 09bf b7f5 6cbd
00000050: 5337 a43e dd53 f5be f856 053f 512d 9c3e
00000060: 5f9c cabd 433a cdbe 4a6b b43e 93f3 ff3d
00000070: 1e8b e53e fb6b cbbe 27da 093f 8a4a d53e
00000080: 264d d2be 8031 933d 3f59 97be a716 92be
00000090: 57ac cd3e 3050 d23e 1528 9cbd 59d5 72bd
000000a0: 1063 2fbe 3c96 023f c0fb e2bc aa24 6b3e
000000b0: d685 23be dac2 813e a186 ac3e eefc 1d3e
000000c0: d274 343e 8183 e73e 7472 e2be 38d7 ebbd
000000d0: 83f3 d33e 9568 c93d 0bfa 163c 2766 973d
000000e0: e3f9 d33c fc0e aa3e e5a3 bb3e ce04 783e
000000f0: 016d 8ebd 5910 acbe 438a a03e e8de 5cbd
0.41146106 -0.07628319 -0.12258707 -0.021965949 -0.027176771 -0.368244 -0.21153964 -0.47042322
0.37665814 0.19216344 -0.33201513 -0.2990557 -0.38895625 0.0017637112 0.3310816 -0.109445885
-0.3618466 0.14527869 -0.53573114 -0.05785152 0.3207346 -0.47915545 0.5208583 0.30503324
-0.09893107 -0.40083513 0.35238105 0.1249763 0.448327 -0.3973082 0.538485 0.4165843
-0.41074485 0.07187176 -0.29560277 -0.28532907 0.40170547 0.41076803 -0.076248325 -0.059285495
-0.17127633 0.5101049 -0.027707934 0.22963205 -0.15969023 0.25343972 0.33696464 0.15428516
0.17622688 0.45217517 -0.44227946 -0.11515659 0.41396722 0.098344006 0.009214888 0.07392531
0.025875991 0.33214557 0.3664848 0.24220583 -0.069543846 -0.33606222 0.31355485 -0.053923517

gat2.bias f4 [16]
00000000: a411 873d e5c5 48ba 7b90 be3c 9d5b 863d
00000010: 40e7 c53c ae73 d4bb 1038 223b 0055 083c
00000020: 50a3 a53c f3c1 2b3d 8fe0 b13c 193e 103d
00000030: c8f5 05ba affd 03bc d360 ec3c c0f8 a73c
0.065951616 -0.0007658883 0.023262253 0.065604426 0.02415812 -0.0064835167 0.0024752654 0.008321047
0.020219475 0.04193301 0.021713523 0.03521547 -0.00051101716 -0.008056088 0.028854763 0.020504355

gat2.lin.weight f4 [64, 64]
00000000: a110 dabd 7841 a83d fcf7 41be 2413 82be
00000010: a59b 23be a255 6abe eef4 38be fd1e 00be
00000020: c92a 43be 3daf 8b3d 6348 3dbe 1ce9 e03e
00000030: ed84 88be 2d1e 903d ae5c 293e 120d da3c
00000040: 753e a13d fde5 de3c 6ac7 a93d 2f98 77bd
00000050: 5618 73bd 4462 0c3e e0c0 403e 0257 5f3e
00000060: 0052 4abe 9f58 f3bd 10d3 d1bd 2c77 32be
00000070: 0b34 31bc 9e19 843d 923c 23be dceb 9c3e
00000080: 3acf b7bd 6437 82be 4fb8 87be 1927 4dbe
00000090: f059 c3bd 6642 433e 9d0e 8e3e 9a52 863e
000000a0: cb16 b1be e8cf 0f3d 4baa 0fbe 5786 50be
000000b0: 6f1b c83d 604c 483e bce5 0bbe ee6b a93e
000000c0: 5c9f 7c3e c501 053e 8a70 08be 6db8 923e
000000d0: 0646 513d ed61 86bd 1204 803e f6dc 90bc
000000e0: 74df 24be aecd fc3d 4de3 043e ebb0 1fbc
000000f0: 80c5 e1bd 0612 403e 1152 493d 6cfd 993e
00000100: 9fc6 7fbe 0dc8 5b3e dff7 d13d d6a8 af3e
00000110: e9c6 0f3e 69dc 95ba 9271 1d3d 4b52 273c
00000120: fa83 393d 0bf1 dfbc 17b9 c7bd 8646 57be
00000130: c323 59bd 3cea 913e 23f1 d5be f7f2 063d
00000140: 903b 763e 2e4d 3d3e ed4d 2fbe aa0a 753e
00000150: e23b 01bd 4371 2cbe ccff 9b3d bc5c 8fbe
00000160: 0986 203d a36a bcbd aad6 e83c cfd1 e5bd
00000170: ef97 77bd 92ae 4ebd 5d68 5bbb ca6e 95be
00000180: 0b17 b0bc f79c 31be 0642 343e 87c3 ea3c
00000190: adb5 7dbe 1462 fe3d ddd7 ac3c 41c3 a63d
000001a0: 325c 8fbd 8ef7 153d 55d1 6c3e 21df 2c3e
000001b0: 9a65 bdbd da12 09be f3c7 783d b22a 14be
000001c0: dbb2 543e b95d 92bd 6ba9 cf3c e54b c9be
000001d0: 6870 be3d 6a6d 843e 7a26 b0bd 5ae5 6abd
000001e0: 4dec c6bc 80fe eabb a6f6 02bd 1d85 7abd
000001f0: eece e73d b914 a43d 650c 30bd c163 04be
00000200: 693e 3ebe 7e1b 843e 2b98 38be 7b5a 083d
00000210: 253d 86bb 6c32 3b3e 9d03 b93e 2059 9e3d
00000220: b15a ba3d 4ee1 57be fc90 183e e55a 24be
00000230: f1fb d03d 816b c8ba 9361 eb3d 3a76 1b3e
00000240: 24f7 f23d 09c9 593c 3a6d 37be 0094 aa3e
00000250: 723d 263d 94c7 4bbe 55bd fe3d c3e1 b9bd
00000260: 558f 463e 5057 36bd 3d56 7a3e efb9 a8bd
00000270: 2f50 41bd b5bd 29be fedd 103e e6cb f4bc
00000280: 8979 58bd c24c d83d db46 a0bc 7bc3 3abd
00000290: fbdf 53bd 073f 18be 0e3e 63be d619 38be
000002a0: 2674 ee3c 7fb9 45bd c0b2 9c3e 0375 eebc
000002b0: 4d45 29be c4fe c4bd 171d 9e3e f06d b1bd
000002c0: ef3b c5be 7310 243e 7d84 e13c 3f5d eebd
000002d0: 1017 d3bd a4d7 bcbd 8741 373d 601b 59bc
000002e0: cef7 3abe 5a05 fbbd eccd 0fbe 6db6 d9be
000002f0: 2c0e 24be 68c9 71be 53e3 8bbd d6f7 103b
00000300: 6a56 9bbd 0428 e0bc 5c98 54bd ce6a 7dbe
00000310: f19d a5be dbfa e83c 7507 623d 21bf 083e
00000320: 0022 bb3d 97aa 6c3e 5b5b 163d 9608 a53e
00000330: 732a bebd 461d a3bc 5161 743e 6a5d 8c3d
00000340: 4dac 1cbe bb42 17be c08c 813d 7d64 e43d
00000350: 351d 233e aae1 633d e72a 3b3e dec3 633e
00000360: 0c27 053e 3fe2 e5bd beb5 2ebe 21e6 1bbe
00000370: 8163 253e b3ff f8bc 7e1b 463d d797 ca3e
00000380: 75ab 213d 8fc1 f0bb b38f a3be 4032 6dbe
00000390: 3c5c d53d ccb5 3e3e 60b5 1c3c 22ab 3e3e
000003a0: a7ea 1fbe b0f9 85be 334d d3be 666e 01be
000003b0: ea0f 003d 359c 92bd 4baf b8bd d451 89bd
000003c0: a5df b33c 4909 933e b42b 173e 18d3 c73d
000003d0: 1856 ce3e 0f31 b6be d5d8 2f3e c843 8c3c
000003e0: 1161 91be 0668 cc3e 04f3 5dbd 182c 2dbd
000003f0: 0761 7e3e 6178 0dbd 3bee 573e f427 c43d
-0.10647703 0.08215612 -0.18942255 -0.25405228 -0.15977342 -0.22884229 -0.18062183 -0.12511821
-0.1905929 0.068205334 -0.18484645 0.43927848 -0.26663914 0.070370056 0.1653926 0.02661756
0.07873241 0.027209276 0.08289988 -0.060447868 -0.05934938 0.1370936 0.18823576 0.21810535
-0.19757843 -0.118821375 -0.10245335 -0.17428273 -0.010815631 0.064501986 -0.15941074 0.30648696
-0.08975072 -0.25432885 -0.26507804 -0.20034446 -0.095386386 0.19068298 0.27745524 0.26234895
-0.34587702 0.035110384 -0.14029805 -0.20363747 0.097708575 0.19560385 -0.13661855 0.33090156
0.24670166 0.12988956 -0.1332418 0.2865633 0.05109217 -0.065616466 0.25003105 -0.017683487
-0.16100866 0.12343918 0.12977333 -0.00974677 -0.11023998 0.18756875 0.04915053 0.30076158
-0.24978112 0.21463032 0.10252356 0.343085 0.14040722 -0.0011433485 0.038438387 0.010212491
0.04529188 -0.027336618 -0.097521 -0.21022996 -0.05301262 0.2849902 -0.41785535 0.032946553
0.24046159 0.18486473 -0.1711957 0.2392985 -0.03155125 -0.16840081 0.07617149 -0.28000438
0.039190326 -0.09200027 0.028422672 -0.112216584 -0.06044763 -0.050459452 -0.0033478953 -0.29186088
-0.021495363 -0.17345034 0.17603311 0.028657688 -0.24776335 0.12421051 0.021099025 0.081427105
-0.07000007 0.03661304 0.23126729 0.16881992 -0.092478946 -0.13386098 0.06073756 -0.14469412
0.20771353 -0.071467824 0.02534934 -0.39315715 0.092987835 0.25864726 -0.08601089 -0.057347633
-0.024282599 -0.007171452 -0.031973504 -0.061162103 0.113187656 0.08011765 -0.04298057 -0.12928678
-0.18578495 0.25802225 -0.18026797 0.033289414 -0.0040966445 0.18280953 0.3613557 0.07731843
0.09099329 -0.2108204 0.14899057 -0.16050299 0.10204304 -0.0015290828 0.1149322 0.15181819
0.118635446 0.013292559 -0.1791276 0.3331604 0.040585943 -0.19900352 0.12438456 -0.09076264
0.19390614 -0.04451686 0.2444696 -0.08238589 -0.04719561 -0.16576274 0.14147183 -0.029882383
-0.05285028 0.105615154 -0.019565037 -0.04559658 -0.051727276 -0.14867793 -0.2219164 -0.17978606
0.029108118 -0.048272606 0.30605125 -0.02910853 -0.16530342 -0.09618905 0.3088157 -0.08663547
-0.38522288 0.160219 0.027528996 -0.11638879 -0.10307133 -0.09220818 0.044740226 -0.013251156
-0.18258592 -0.1225688 -0.14043397 -0.42521992 -0.16021031 -0.23611987 -0.06830468 0.0022120378
-0.075848415 -0.027362831 -0.051903114 -0.24747774 -0.32347062 0.02843993 0.055182893 0.1335416
0.09137344 0.2311195 0.036708217 0.32233113 -0.0928544 -0.01991142 0.23865248 0.06853755
-0.15300103 -0.1477155 0.06325674 0.11151979 0.1592911 0.055635132 0.18278085 0.22242686
0.13003176 -0.11224794 -0.17061517 -0.15224506 0.16151239 -0.030395364 0.048366062 0.3956897
0.039470155 -0.0073472927 -0.3194557 -0.231637 0.10417983 0.18624038 0.009564728 0.1861997
-0.15616857 -0.2616706 -0.41269836 -0.1263977 0.031265177 -0.071587004 -0.090178095 -0.067050606
0.021957228 0.28718022 0.14762765 0.0975706 0.4030006 -0.35584304 0.17172559 0.017122164
-0.28394368 0.39923114 -0.054186836 -0.04227838 0.248417 -0.03453863 0.21086971 0.09577933

gat2.lin_edge.weight f4 [64, 2]
00000000: 758a 69be cf09 7d3e 328c 813e 100b 8c3e
00000010: 03d7 6dbe ee46 91be de4a 633c 32bc bdbc
00000020: 1928 0dbd 2ac5 403e d423 08be ce79 793e
00000030: 59ca 97be a3d1 873e d82a 8a3e 62c9 99be
00000040: 5b4d 3ebe 7251 523d b6cb efbd 7aea 8abe
00000050: 7794 823e 4c04 52be eb46 2fbe eaee 46be
00000060: 79da fd3d 7323 24be 8b64 85be 64b1 77be
00000070: 2d79 d4bd a3f0 8e3e 1a2e 2abe a107 a93c
00000080: f13c f6bd 086d 3ebe 76d6 c43d e03e 7cbd
00000090: a8c4 2d3e 4379 d03d d8bb 373d 33a0 23be
000000a0: f655 a83c fbfa 6fbe a42a 763e 28eb 4fbc
000000b0: ae09 1fbc 3fe5 4abe 57b1 d93d 3aec e13d
000000c0: cfb1 573d 4f01 43be abb4 423e b29f cbbb
000000d0: 03fa 4a3d 950c 7ebe 2444 783e 2c20 7f3e
000000e0: dbaf 473d 9d87 65be b887 a3bc 1686 98be
000000f0: e05e c4bd bce0 93be 3005 92be 198b d5bc
00000100: 8a53 0abe e93c 6b3e 336d 59be d718 903e
00000110: 05c0 54be 7a67 6e3c 99e9 0bbe 3468 28bd
00000120: caaa 35be 90eb 763e f733 40be caaa 3fbe
00000130: d569 19be 30a8 b5bd c4ba 8ebd 7973 7fbe
00000140: 3db2 fc3c 0da7 7f3e 2544 44be e247 3fbe
00000150: c6c5 74be c4b7 08be 4c78 cebd 7066 843d
00000160: 76f0 8cbe bfc3 af3c b643 24bd 050a 91be
00000170: 49d5 6fbd 1afa 213e b868 0a3e 6796 823e
00000180: 1010 95be b6e6 f73b 531f 813e 9329 913e
00000190: 6f0a 7ebe faa5 623d 8f7f 97be 6507 20be
000001a0: 081c 88be 46c0 58be c0fc 7b3e 07cd 353d
000001b0: f7b6 833e 22a2 663e cf4f 89be cbe1 18bd
000001c0: 7d3e 35bd 3a14 e7bc 5004 68be a7a0 543e
000001d0: 0509 36be 89d3 72bd 8406 3cbd e0f6 1ebd
000001e0: 527c e73d eefd 94be f356 963e a15a 7b3e
000001f0: ea60 29be a3a4 4dbd 7ba3 c0bd 4f91 8c3e
-0.22806723 0.24710773 0.25302273 0.2735219 -0.23226552 -0.28374428 0.01387283 -0.023161028
-0.03446207 0.18825212 -0.13294917 0.24362871 -0.29646567 0.26527128 0.26985812 -0.30036455
-0.18584196 0.051347204 -0.11708777 -0.27132016 0.25503895 -0.20509452 -0.17116897 -0.19427076
0.12395186 -0.16029148 -0.2605327 -0.24188763 -0.10374675 0.27917966 -0.16619149 0.02063352
-0.120233424 -0.1859628 0.09611218 -0.0615834 0.1696955 0.10179379 0.044856876 -0.1597908
0.020548802 -0.23435585 0.24039704 -0.012690343 -0.009706898 -0.19814013 0.10629528 0.11031385
0.052659806 -0.19043468 0.19014232 -0.0062141055 0.049554836 -0.24809487 0.24244744 0.24914616
0.048751693 -0.22415014 -0.019962177 -0.297898 -0.095884085 -0.28882396 -0.28519583 -0.026067303
-0.1350843 0.22972454 -0.21233062 0.2814395 -0.20776375 0.014551038 -0.13663329 -0.041115
-0.17740932 0.24113297 -0.18769823 -0.18717495 -0.14981778 -0.0886997 -0.069692165 -0.24946393
0.03084671 0.24966069 -0.1916662 -0.18679765 -0.2390357 -0.13351351 -0.100815386 0.06464851
-0.27527207 0.021455644 -0.040103637 -0.28327957 -0.058553014 0.15818062 0.1351651 0.25505373
-0.29113817 0.0075653447 0.2521921 0.2835203 -0.24808668 0.05533407 -0.29589507 -0.15627821
-0.26583886 -0.21167096 0.24608135 0.044384982 0.2572553 0.22522786 -0.26818702 -0.037324708
-0.044249047 -0.028207887 -0.22657895 0.20764409 -0.17776878 -0.059283767 -0.04590465 -0.038809657
0.11303009 -0.29099983 0.29363212 0.24546291 -0.16540876 -0.050205838 -0.094061814 0.27454612

action_head.weight f4 [3, 16]
00000000: edea 8bbd f51a d5be c1d2 983e 70cf 543e
00000010: 3821 0c3e 57cf f3be 590a debe e169 80be
00000020: a585 13be c347 9c3e 7bbd 0cbe 3a7d 063e
00000030: f3ba fbbe cdec e1be 053b 8a3e 172d a1bd
00000040: cf49 d6be c4cb 893e c1fd b63e ed5c b9be
00000050: 3eb2 5a3e 88b1 df3e 0592 d2bd 36ca 013c
00000060: 07eb 20be c717 063e ab24 573e 1dd6 24be
00000070: 7abd a23e fbad b03e f1a0 a83e 9610 8abe
00000080: fa2a 433e 5f6e 89be 3112 f9be 93ec 5b3e
00000090: 9409 04bf 4542 65be 2754 0a3f be94 eb3e
000000a0: 13c6 9f3e ee32 b0be bd1e cabe 62c4 9e3e
000000b0: 218d 1f3e a7d1 a43e 0df7 31be 46dc a13e
-0.06831918 -0.4162213 0.29848292 0.20782256 0.13684547 -0.47619125 -0.4336727 -0.2508078
-0.1440645 0.305235 -0.13744156 0.13133708 -0.49166068 -0.44125977 0.26998153 -0.07869928
-0.41853186 0.26913273 0.35740474 -0.3620371 0.21357056 0.43690133 -0.10281757 0.007921746
-0.15714656 0.13095008 0.21010081 -0.16097303 0.31785184 0.34507737 0.3293529 -0.2696578
0.19059363 -0.2684202 -0.4864669 0.21476965 -0.51577115 -0.22388561 0.54034656 0.4601192
0.31205806 -0.34413856 -0.39476576 0.31009203 0.1558118 0.32191202 -0.17379399 0.31613368

action_head.bias f4 [3]
00000000: d7aa e8bd f44f ff3c a849 11be
-0.1136071 0.031166054 -0.14188254
