src/model_weights_4_class.pth (torch, 27176 bytes, 14 tensors)

gat1.att_src f4 [1, 4, 16]
-0.73700583 -0.17183667 -0.66709733 0.57134885 0.11022588 0.50832176 0.1589065 0.49847916
0.3922359 -0.4457705 -0.17594494 -0.75479585 -0.13798614 0.33084437 -0.4201189 -0.28537917
0.011373034 0.17312111 -0.59233457 0.75849956 0.3028975 0.27393278 -0.11616365 -0.057394244
-0.121825226 0.310239 0.380548 0.8845489 -0.4612384 -0.052470654 0.44155106 -0.16357334
-0.24619266 -0.41075212 -0.14600319 -0.1936223 -0.05965367 0.40938184 0.47975522 0.14506057
0.3757372 -0.3890597 -0.34194946 -0.359704 0.6261673 0.16643614 -0.19019917 0.5343958
0.116629235 0.59368646 0.7348063 0.38314632 0.40971875 -0.38287136 0.36302862 -0.05445249
0.32229978 0.15121782 0.567894 -0.19513361 0.7080345 -0.5836481 0.32846636 -0.36530957
00000000: 6aac 3cbf f4f5 2fbe e4c6 2abf eb43 123f
00000010: 1bbe e13d 6021 023f 63b8 223e a938 ff3e
00000020: 25d3 c83e 083c e4be e92a 34be 4d3a 41bf
00000030: 3d4c 0dbe 6f64 a93e d319 d7be 381d 92be
00000040: f655 3a3c a946 313e 3da3 17bf 072d 423f
00000050: 6215 9b3e eb40 8c3e 35e7 edbd 3a16 6bbd
00000060: 817f f9bd a5d7 9e3e 30d7 c23e cc71 623f
00000070: 7127 ecbe 78eb 56bd fb12 e23e c57f 27be
00000080: ee19 7cbe 1a4e d2be dc81 15be ed44 46be
00000090: 6857 74bd 7f9a d13e 7aa2 f53e c28a 143e
000000a0: a060 c03e d532 c7be 0014 afbe 1f2b b8be
000000b0: 804c 203f 3c6e 2a3e 92c3 42be 2ace 083f
000000c0: 4fdb ee3d d6fb 173f 441c 3c3f c12b c43e
000000d0: a8c6 d13e b707 c4be e3de b93e 9309 5fbd
000000e0: 7a04 a53e d8d8 1a3e 8061 113f 1bd1 47be
000000f0: c041 353f f669 15bf be2c a83e db09 bbbe

gat1.att_dst f4 [1, 4, 16]
0.4635793 0.52996063 0.40842807 -0.39951187 -0.026384225 0.19207586 -0.29460743 -0.22694284
-0.08790912 -0.11015815 -0.53798306 -0.18697263 0.54274374 0.26162145 -0.16889234 -0.21608621
0.19954717 0.079412214 0.18385911 -0.43864152 0.3759666 -0.15806213 0.22554731 0.084197015
0.026729837 -0.006482625 0.3391704 0.42156157 0.41488287 -0.20554754 0.15909658 -0.5659053
-0.38211125 0.122106574 0.37870675 -0.50228304 -0.083961636 0.18108018 0.099735975 -0.35752913
0.6114367 -0.058084067 -0.11466771 -0.5863405 -0.018831449 0.49225393 -0.025297582 -0.3215505
0.5168296 0.39487997 -0.35902438 0.27376896 0.20171443 0.48299667 -0.5826416 -0.24800797
0.4908811 0.55333054 -0.7059945 0.36875838 0.2512162 -0.45559186 0.023714785 0.374287
00000000: 445a ed3e 80ab 073f 7c1d d13e d28c ccbe
00000010: bb23 d8bc 89af 443e c9d6 96be b463 68be
00000020: b209 b4bd 999a e1bd 42b9 09bf c175 3fbe
00000030: 41f1 0a3f 3ff3 853e 1df2 2cbe b445 5dbe
00000040: 1856 4c3e dfa2 a23d 9045 3c3e 9f95 e0be
00000050: b27e c03e 0adb 21be e0f5 663e 7c6f ac3d
00000060: 88f8 da3c 336c d4bb bea7 ad3e ebd6 d73e
00000070: 876b d43e 0e7b 52be 37ea 223e 2bdf 10bf
00000080: 16a4 c3be 0313 fa3d dae5 c13e 9f95 00bf
00000090: 14f4 abbd 156d 393e 6042 cc3d 0f0e b7be
000000a0: 1e87 1c3f 8fe9 6dbd e8d6 eabd 691a 16bf
000000b0: 6944 9abc b508 fc3e e03c cfbc 44a2 a4be
000000c0: f24e 043f b52d ca3e 0bd2 b7be 722b 8c3e
000000d0: 3a8e 4e3e 574b f73e 0028 15bf cdf5 7dbe
000000e0: c454 fb3e 12a7 0d3f 0ebc 34bf e6cd bc3e
000000f0: 699f 803e 5643 e9be 8245 c23c 8ca2 bf3e

gat1.att_edge f4 [1, 4, 16]
0.46235254 -0.12817496 0.05532583 0.21363066 0.44776595 -0.5025535 0.5347977 -0.52744013
0.38629514 0.14696132 -0.5060041 0.11360306 -0.535476 0.15635216 -0.04935662 -0.12180531
-0.4229999 0.05895322 0.11506127 0.21601258 -0.5106855 -0.46114513 -0.42529333 0.31232068
-0.048607703 0.47088635 0.31740633 0.2875729 -0.48663765 -0.114689745 0.4809227 -0.2864708
0.3998886 0.25933868 -0.32082602 -0.13898218 -0.051604226 0.33680975 -0.48054975 0.34912863
-0.20882839 0.15427707 0.22567303 -0.33326635 0.17157838 -0.09060378 0.3092367 0.015724728
0.48134887 0.09182255 0.0017556801 -0.3271732 0.2774467 0.2909585 -0.35768053 0.043521136
0.16876018 0.5295784 0.1849048 0.46734214 0.02454028 0.11360789 0.09849419 0.504479
00000000: 79b9 ec3e 4c40 03be 569d 623d ffc1 5a3e
00000010: 9441 e53e 59a7 00bf 81e8 083f 5106 07bf
00000020: 7ac8 c53e 077d 163e 7c89 01bf b9a8 e83d
00000030: f514 09bf c81a 203e 2b2a 4abd 1075 f9bd
00000040: 7193 d8be ee78 713d 3ea5 eb3d 6732 5d3e
00000050: 49bc 02bf 371b ecbe 0cc0 d9be 7fe8 9f3e
00000060: df18 47bd 0418 f13e 1583 a23e c13c 933e
00000070: 9228 f9be 75e2 eabd 803b f63e 4dac 92be
00000080: 33be cc3e 0ac8 843e 4f43 a4be 5851 0ebe
00000090: f45e 53bd 5472 ac3e 9e0a f6be fdc0 b23e
000000a0: 1cd7 55be cffa 1d3e d516 673e e3a1 aabe
000000b0: 3eb2 2f3e 798e b9bd 4654 9e3e 25d1 803c
000000c0: 5c73 f63e 760d bc3d d91e e63a 3f83 a7be
000000d0: 7e0d 8e3e 83f8 943e e721 b7be 3843 323d
000000e0: 78cf 2c3e 7392 073f af57 3d3e 7847 ef3e
000000f0: b308 c93c 41ab e83d 52b7 c93d 8925 013f

gat1.bias f4 [64]
0.30440643 -0.059170354 -0.021056296 -0.011927215 -0.028371785 0.06559561 -0.032197505 -0.014704331
-0.06749525 0.14073907 0.009079912 0.15894645 -0.02067355 0.0086198645 0.16178694 0.035794064
-0.029376416 -0.055701397 0.008797584 -0.041036457 -0.015753066 -0.036657326 0.12210531 0.07856248
-0.007768068 0.0755964 -0.02266109 -0.024346462 0.23299116 0.047395848 -0.006519146 0.07442976
0.0073225684 -0.0061596544 0.04231276 -0.041318398 0.14286903 0.010359802 0.07717561 0.0236862
0.071870536 0.08527037 0.021057647 0.086558916 0.007402732 0.0013759017 0.08324936 0.008853247
0.015262647 0.04601997 -0.010696087 0.06966275 0.06899014 -0.0020966204 0.054845992 0.06809517
-0.034218628 0.084457465 0.008970048 -0.020013656 0.008399968 0.014480848 0.036705136 0.09079856
00000000: 29db 9b3e 9d5c 72bd 417e acbc 5e6a 43bc
00000010: f26b e8bc fe56 863d 88e1 03bd 6fea 70bc
00000020: f33a 8abd e71d 103e e9c3 143c dcc2 223e
00000030: 945b a9bc 553a 0d3c 7aab 253e cc9c 123d
00000040: cfa6 f0bc 2627 64bd be23 103c d815 28bd
00000050: 930c 81bc fe25 16bd 5912 fa3d 5ee5 a03d
00000060: 478b febb 49d2 9a3d c0a3 b9bc 3b72 c7bc
00000070: 3c95 6e3e 2622 423d 8f9e d5bb a16e 983d
00000080: 28f2 ef3b edd6 c9bb 2550 2d3d 7b3d 29bd
00000090: 424c 123e 29bc 293c 3f0e 9e3d 9009 c23c
000000a0: dc30 933d 3ba2 ae3d 1681 ac3c cd45 b13d
000000b0: 9e92 f23b 9a57 b43a a47e aa3d 360d 113c
000000c0: 2e10 7a3c 707f 3c3d a43e 2fbc 58ab 8e3d
000000d0: b44a 8d3d 7467 09bb 31a6 603d 7b75 8b3d
000000e0: d528 0cbd 09f8 ac3d 1cf7 123c aef3 a3bc
000000f0: 05a0 093c 1441 6d3c 2058 163d 98f4 b93d

gat1.lin.weight f4 [64, 9]
-0.19769628 0.024499403 -0.17757799 0.09509582 0.5029702 -0.58470863 0.45592844 0.38320655
0.10691781 0.20547011 0.19184852 0.3708347 0.1149959 0.043691337 0.2655491 0.118274055
-0.12428738 0.01503783 -0.16201016 -0.17585282 -0.11872273 -0.027785027 0.31332567 -0.39135
0.25729424 -0.25582665 0.268068 0.041922282 -0.30710182 0.16777834 0.17086056 -0.25273374
0.62378174 -0.40060318 -0.19157843 0.00059453736 0.2905928 -0.29765055 0.20337808 0.3081201
-0.6097817 0.4795164 -0.33846903 -0.3373711 0.11039191 0.075131066 -0.17530413 -0.11978556
-0.26223385 0.020937586 0.47683945 -0.6720357 0.23131727 0.028635746 -0.14237559 4.093556e-05
0.15358731 0.37285846 -0.19999604 0.5121923 -0.416011 -0.10589144 -0.11314004 -0.042741287
-0.019824915 -0.18389706 -0.048704218 -0.63132495 0.1957123 -0.39696312 -0.11641251 -0.33831072
0.107048966 -0.31404847 0.30438042 0.073949896 -0.51261276 0.6194259 -0.2123113 -0.24325238
-0.21819179 -0.14104669 0.09794294 -0.13712709 0.16648586 0.46346915 -0.33996728 0.44668874
0.16325688 0.3259406 0.062455148 -0.054890756 -0.21826893 0.03782985 0.4791065 0.028898735
0.062274948 -0.25009272 -0.09515478 -0.11306579 0.2115328 -0.03417241 -0.08339811 0.11257016
-0.47097355 0.6875634 0.43781027 0.2364943 0.05015863 -0.08355679 0.21689087 0.278958
-0.3276757 0.28387395 -0.47840852 0.054584514 -0.07561549 -0.09940676 -0.33101952 0.06827308
0.09110263 -0.63977534 0.42727613 -0.33325484 -0.32144123 -0.10864817 -0.061805222 0.21402064
0.11029468 -0.24962611 0.658808 -0.57980573 0.4067318 0.47240397 0.369065 0.094485804
0.34683913 0.1162931 0.025492564 0.23202695 -0.5886569 0.04393662 0.21073288 -0.08874336
0.16930647 0.19877571 -0.21686047 0.09533961 -0.06070144 0.6046811 -0.23990662 -0.16146597
0.07689418 -0.11863375 0.09903212 -0.08417378 0.4303833 -0.49702114 0.5678046 -0.10751165
-0.1383154 -0.31074843 -0.09167073 -0.27947184 -0.15342815 -0.030252894 0.28961846 -0.42239124
0.32401824 -0.20496503 -0.08803917 -0.24465773 -0.076022975 0.4034144 -0.054793444 -0.30576608
0.62263507 -0.6284834 -0.029520229 0.31618202 -0.15741995 -0.18767203 0.23033632 -0.17136623
0.07164094 0.48534295 -0.45357278 0.17952304 0.45860684 0.014740494 0.11691215 -0.13402201
-0.26815298 -0.10436537 0.34132954 -0.36815885 -0.13866356 -0.19945991 0.38691556 0.076985344
-0.084420346 -0.052216414 0.430172 -0.46131104 0.2989599 -0.14152515 -0.21785581 -0.1901735
0.35752913 0.13893817 -0.33513483 0.35145453 -0.56106865 0.35187018 0.31508237 0.2488322
-0.037987202 0.062921464 -0.044283032 0.27572677 0.18200557 0.24303554 -0.49630025 0.32277906
-0.17824459 0.25141492 0.03273909 0.009732131 0.18874855 -0.30592296 0.38296908 0.04758636
-0.1169199 -0.33156225 0.11659824 -0.16365764 0.15977 -0.20922457 -0.14513442 0.23829259
-0.5853879 0.0985792 0.03309887 0.08619816 0.25102928 0.3109103 -0.115565434 -0.21103771
0.562321 -0.40881497 0.17620791 0.013021621 0.054217316 0.3623556 -0.38300458 0.10309755
00000000: e570 4abe f9b2 c83c 01d7 35be 99c1 c23d
00000010: a8c2 003f 77af 15bf 746f e93e a633 c43e
00000020: baf7 da3d c266 523e f073 443e 0cde bd3e
00000030: f882 eb3d b0f5 323d 0df6 873e ab39 f23d
00000040: 628a febd 3b61 763c fee5 25be c312 34be
00000050: e724 f3bd 6d9d e3bc 396c a03e 075f c8be
00000060: 12bc 833e b6fb 82be 3540 893e b3b6 2b3d
00000070: 733c 9dbe 16ce 2b3e 12f6 2e3e 5166 81be
00000080: 29b0 1f3f dc1b cdbe 232d 44be bada 1b3a
00000090: 94c8 943e a765 98be 5842 503e ebc1 9d3e
000000a0: a71a 1cbf 2c83 f53e d04b adbe e8bb acbe
000000b0: 2715 e23d 51de 993d ed82 33be 2252 f5bd
000000c0: 8443 86be 4d85 ab3c 4d24 f43e 880a 2cbf
000000d0: 6fde 6c3e 8395 ea3c e8ca 11be 39b2 2b38
000000e0: fe45 1d3e 4ee7 be3e c3cb 4cbe 091f 033f
000000f0: 65ff d4be 9cdd d8bd f7b5 e7bd 7d11 2fbd
00000100: dc67 a2bc 834f 3cbe 137e 47bd 839e 21bf
00000110: ce68 483e c03e cbbe af69 eebd 1037 adbe
00000120: 7d3c db3d f6ca a0be c0d7 9b3e 0b73 973d
00000130: 973a 03bf b292 1e3f 2268 59be 2717 79be
00000140: ab6d 5fbe 8b6e 10be 4f96 c83d 0b6b 0cbe
00000150: 457b 2a3e d44b ed3e 3110 aebe 63b4 e43e
00000160: d02c 273e b0e1 a63e f8d0 7f3d 21d5 60bd
00000170: e481 5fbe 79f3 1a3d 724d f53e 0abd ec3c
00000180: 0414 7f3d 270c 80be 82e0 c2bd 098f e7bd
00000190: 0e9c 583e 5ef8 0bbd a1cc aabd 2f8b e63d
000001a0: 7223 f1be 2804 303f ab28 e03e 902b 723e
000001b0: 2373 4d3d d31f abbd a418 5e3e 95d3 8e3e
000001c0: 1cc5 a7be ed57 913e f6f1 f4be 0394 5f3d
000001d0: 4bdc 9abd c595 cbbd 647b a9be c2d2 8b3d
000001e0: 0494 ba3d 51c8 23bf f0c3 da3e 61a0 aabe
000001f0: f293 a4be ef82 debd 7927 7dbd 3a28 5b3e
00000200: 2de2 e13d fd9d 7fbe a4a7 283f 266e 14bf
00000210: 273f d03e efde f13e 16f6 bc3e c681 c13d
00000220: e694 b13e 142b ee3d c8d5 d03c 7998 6d3e
00000230: 38b2 16bf e3f6 333d 5cca 573e 14bf b5bd
00000240: ad5e 2d3e dc8b 4b3e ac10 5ebe 6a41 c33d
00000250: 13a2 78bd 61cc 1a3f 15aa 75be 5657 25be
00000260: b27a 9d3d 40f6 f2bd 5ad1 ca3d 4e63 acbd
00000270: 335b dc3e 8e79 febe a45b 113f 112f dcbd
00000280: 8da2 0dbe 6b1a 9fbe ddbd bbbd ef16 8fbe
00000290: 451c 1dbe ebd4 f7bc df48 943e aa43 d8be
000002a0: b8e5 a53e 5ae2 51be e14d b4bd 8e87 7abe
000002b0: efb1 9bbd 558c ce3e 176f 60bd 5f8d 9cbe
000002c0: 0365 1f3f 4ae4 20bf 68d4 f1bc 9ce2 a13e
000002d0: b232 21be 192d 40be 49dd 6b3e a17a 2fbe
000002e0: 7cb8 923d df7e f83e b13a e8be e3d4 373e
000002f0: 84ce ea3e 1d82 713c a36f ef3d 113d 09be
00000300: 594b 89be 83bd d5bd bfc2 ae3e 517f bcbe
00000310: d2fd 0dbe 383f 4cbe cc19 c63e 7eaa 9d3d
00000320: 93e4 acbd e1e0 55bd 813f dc3e f630 ecbe
00000330: 4611 993e f8eb 10be 9815 5fbe d8bc 42be
00000340: 0f0e b73e cf45 0e3e cb96 abbe d9f1 b33e
00000350: 32a2 0fbf 5428 b43e 7a52 a13e decd 7e3e
00000360: 7898 1bbd f8dc 803d 2062 35bd 0f2c 8d3e
00000370: ab5f 3a3e 4fde 783e 111b febe 4c43 a53e
00000380: c085 36be 75b9 803e 6d19 063d 8473 1f3c
00000390: 4d47 413e efa1 9cbe 8614 c43e eae9 423d
000003a0: b373 efbd 87c2 a9be 0fcb ee3d de95 27be
000003b0: bf9a 233e f73e 56be 1e9e 14be f902 743e
000003c0: fbdb 15bf e4e3 c93d ae92 073d a988 b03d
000003d0: e986 803e a32f 9f3e 92ad ecbd 451a 58be
000003e0: 45f4 0f3f 3250 d1be d96f 343e a358 553c
000003f0: fa12 5e3d ac86 b93e 2d19 c4be cf24 d33d

gat1.lin_edge.weight f4 [64, 2]
-0.21685031 0.18669975 0.21442325 0.18013196 -0.0074861622 0.022747433 -0.27024123 0.17928985
0.2602018 -0.1698075 0.12810338 0.25605765 0.27903455 -0.18206443 -0.14704338 0.19272439
0.18680692 -0.10901685 0.24352552 -0.25788477 0.17521162 0.108188435 0.21061338 0.005522635
-0.072643764 -0.26482457 -0.08449541 -0.026773116 -0.14757322 -0.25075078 0.24934852 0.05899227
0.016070202 -0.009315479 0.17655535 0.25457862 0.059046473 -0.27022833 -0.09151895 -0.0034948052
0.07424732 -0.14198758 -0.2745552 -0.2113979 -0.118043415 0.029697578 0.08477929 0.13326956
-0.0179181 0.017500157 0.285641 -0.27772897 -0.22864701 0.0654721 -0.26593596 0.17906679
0.11740058 0.058224853 -0.21521644 0.008486239 0.07918467 -0.27269086 -0.30028236 0.0020865602
-0.010243023 0.10996214 0.21863297 -0.07405348 0.22859992 0.20314552 0.26169503 -0.17945343
-0.21971777 -0.26586106 -0.040766966 0.28598103 -0.25115374 -0.2633733 0.030496806 -0.010285472
0.13235022 -0.07263309 0.049911644 -0.012154972 -0.038086805 -0.048361246 -0.017116215 -0.2683386
-0.20667863 -0.010075744 -0.07548577 0.118568905 0.1410992 0.081290126 -0.035958912 0.010321379
0.24378118 -0.18041554 0.25297308 0.28912994 0.14180386 -0.1253516 -0.24007934 0.0046047596
-0.23100695 0.26727167 0.19681197 0.08126655 -0.10117614 -0.0031481714 -0.006949678 0.25820774
0.023043567 0.21024339 0.2660858 -0.14154927 0.10949162 0.13927078 -0.25535902 0.2378071
-0.25433803 0.2791742 0.2773386 -0.21954189 0.13163108 -0.12618497 -0.2505345 0.03080541
00000000: 020e 5ebe 382e 3f3e c591 5b3e 8374 383e
00000010: 7b4e f5bb d358 ba3c 0f5d 8abe c297 373e
00000020: 2c39 853e 04e2 2dbe 882d 033e fd19 833e
00000030: 9edd 8e3e 196f 3abe 8a92 16be 8b59 453e
00000040: 504a 3f3e 3a44 dfbd c15e 793e 7909 84be
00000050: ad6a 333e e691 dd3d 09ab 573e 38f7 b43b
00000060: 41c6 94bd 1697 87be ee0b adbd 4b53 dbbc
00000070: 6f1d 17be 6862 80be 3855 7f3e e1a1 713d
00000080: a8a5 833c f39f 18bc edca 343e 2158 823e
00000090: b7da 713d 5e5b 8abe 4a6e bbbd 1a09 65bb
000000a0: fb0e 983d 3165 11be 8092 8cbe b178 58be
000000b0: bfc0 f1bd 5648 f33c c4a0 ad3d d177 083e
000000c0: fbc8 92bc 7d5c 8f3c 8a3f 923e 7e32 8ebe
000000d0: 7122 6abe 3d16 863d c228 88be 495d 373e
000000e0: b76f f03d 2f7d 6e3d b361 5cbe de09 0b3c
000000f0: 922b a23d 239e 8bbe 9cbe 99be acbe 083b
00000100: 5ad2 27bc d533 e13d 52e1 5f3e 5aa9 97bd
00000110: 1916 6a3e 6105 503e e4fc 853e a4c2 37be
00000120: b2fd 60be f11e 88be 43fb 26bd 1b6c 923e
00000130: 3997 80be ddd8 86be 70d4 f93c 6584 28bc
00000140: d186 073e a8c0 94bd 2770 4c3d a625 47bc
00000150: e900 1cbd 7116 46bd 4e37 8cbc ad63 89be
00000160: 90a3 53be bc14 25bc 4998 9abd 41d4 f23d
00000170: 4f7c 103e 707b a63d a749 13bd 001b 293c
00000180: c6a1 793e dabe 38be b085 813e d708 943e
00000190: 0835 113e 2b5c 00be 5cd7 75be 86e3 963b
000001a0: 168d 6cbe d5d7 883e 1489 493e 146f a63d
000001b0: 7035 cfbd 8d51 4ebb 20ba e3bb ce33 843e
000001c0: ddc5 bc3c 0b4a 573e 663c 883e 4bf2 10be
000001d0: 243d e03d 009d 0e3e 6bbe 82be b483 733e
000001e0: 9838 82be ecef 8e3e 53ff 8d3e 97cf 60be
000001f0: 4cca 063e a236 01be 0f46 80be a15b fc3c

gat2.att_src f4 [1, 4, 16]
-0.28077486 -0.4354477 -0.40374777 -0.30423093 -0.2411598 -0.45032245 0.51466006 0.02696143
0.0014836483 -0.15405703 0.34450075 -0.16655247 0.41434208 -0.63613313 -0.4609176 0.39100236
-0.28521904 -0.20297197 0.52743113 0.036955122 0.7712581 0.41289258 0.035879668 0.3985239
-0.44606432 -0.12506296 0.5664205 0.078362636 -0.52429456 -0.45695463 -0.08720784 -0.22966678
-0.61834395 -0.36729005 0.4889787 0.28547743 0.38139266 -0.41043702 0.17524269 -0.03463082
0.12788728 -0.029391875 -0.4107963 -0.2972169 -0.4876428 0.45103112 0.41592124 -0.108769864
-0.2112018 -0.17576167 -0.55146736 0.32390258 -0.48543435 -0.5382049 -0.4142175 0.1977649
0.049833886 -0.50328845 0.28158057 -0.3381603 0.19457674 -0.014603249 0.044980068 0.052462585
00000000: b9c1 8fbe 00f3 debe 07b8 cebe 28c4 9bbe
00000010: 98f2 76be aa90 e6be c3c0 033f 38de dc3c
00000020: fa76 c23a 20c1 1dbe 6762 b03e bb8c 2abe
00000030: a524 d43e 9fd9 22bf 64fd ebbe 7631 c83e
00000040: 3b08 92be e2d7 4fbe ba05 073f 415e 173d
00000050: 2c71 453f a866 d33e 8ff6 123d 530b cc3e
00000060: 8b62 e4be 8110 00be ef00 113f 977c a03d
00000070: 2b38 06bf f5f5 e9be 069a b2bd c52d 6bbe
00000080: ca4b 1ebf 710d bcbe 6b5b fa3e 192a 923e
00000090: e645 c33e cd24 d2be d272 333e 0cd9 0dbd
000000a0: e2f4 023e 3bc7 f0bc e553 d2be d02c 98be
000000b0: 51ac f9be 8ded e63e a1f3 d43e bcc2 debd
000000c0: 4945 58be defa 33be f72c 0dbf 8fd6 a53e
000000d0: da8a f8be ccc7 09bf 5114 d4be e282 4a3e
000000e0: 9e1e 4c3d 83d7 00bf 542b 903e 5923 adbe
000000f0: 203f 473e 7742 6fbc 053d 383d 02e3 563d

gat2.att_dst f4 [1, 4, 16]
0.39607248 -0.553508 -0.47513977 0.04863829 -0.1376605 -0.52580196 0.012452606 -0.43211073
0.4408186 0.49032143 -0.14730999 -0.369361 -0.3584973 -0.3187355 -0.2181116 -0.003886619
-0.5210042 0.14104211 0.48051664 -0.119499475 0.02578098 -0.010242526 -0.09183395 0.0046000164
-0.19705167 0.4497397 0.14023612 -0.28379637 -0.29037297 -0.08025653 -0.18727526 -0.29454914
-0.1957963 -0.027026333 -0.1251445 -0.4383619 0.24941872 0.42128134 -0.5194004 0.4840571
0.53060037 0.093285374 0.46343428 0.41121987 0.18335585 0.44298112 0.53488773 0.4814129
0.19313663 0.42131078 -0.09011315 0.037478343 0.19009036 -0.11155435 0.033759803 0.05748109
0.44261432 -0.1298902 0.09641973 0.1808858 0.15762527 -0.29724157 -0.51540273 -0.106078945
00000000: 03ca ca3e b3b2 0dbf 8545 f3be f238 473d
00000010: e0f6 0cbe f59a 06bf 0406 4c3c 9e3d ddbe
00000020: fab2 e13e 690b fb3e 6ed8 16be e31c bdbe
00000030: f58c b7be 4d31 a3be a658 5fbe a5b6 7ebb
00000040: 8860 05bf 586d 103e 4706 f63e 24bc f4bd
00000050: a232 d33c 45d0 27bc 7013 bcbd bcbb 963b
00000060: eac7 49be 4844 e63e 0f9a 0f3e c24d 91be
00000070: c4ab 94be 895d a4bd 16c5 3fbe 25cf 96be
00000080: d37e 48be 5466 ddbc e125 00be f970 e0be
00000090: 9f67 7f3e 30b2 d73e 6df7 04bf 55d6 f73e
000000a0: 6dd5 073f 670c bf3d 4247 ed3e 698b d23e
000000b0: a3c1 3b3e 6cce e23e 67ee 083f c07b f63e
000000c0: 9cc5 453e 0cb6 d73e 3e8d b8bd e482 193d
000000d0: 0ca7 423e 9b76 e4bd b847 0a3d 4b71 6b3d
000000e0: 589e e23e f001 05be b577 c53d 213a 393e
000000f0: 8568 213e 0c30 98be 6ff1 03bf eb3f d9bd

gat2.att_edge f4 [1, 4, 16]
0.41146106 -0.07628319 -0.12258707 -0.021965949 -0.027176771 -0.368244 -0.21153964 -0.47042322
0.37665814 0.19216344 -0.33201513 -0.2990557 -0.38895625 0.0017637112 0.3310816 -0.109445885
-0.3618466 0.14527869 -0.53573114 -0.05785152 0.3207346 -0.47915545 0.5208583 0.30503324
-0.09893107 -0.40083513 0.35238105 0.1249763 0.448327 -0.3973082 0.538485 0.4165843
-0.41074485 0.07187176 -0.29560277 -0.28532907 0.40170547 0.41076803 -0.076248325 -0.059285495
-0.17127633 0.5101049 -0.027707934 0.22963205 -0.15969023 0.25343972 0.33696464 0.15428516
0.17622688 0.45217517 -0.44227946 -0.11515659 0.41396722 0.098344006 0.009214888 0.07392531
0.025875991 0.33214557 0.3664848 0.24220583 -0.069543846 -0.33606222 0.31355485 -0.053923517
00000000: 06ab d23e 5c3a 9cbd ee0e fbbd eff1 b3bc
00000010: d2a1 debc 7a8a bcbe d99d 58be 50db f0be
00000020: 56d9 c03e 7ec6 443e e3fd a9be d41d 99be
00000030: 4625 c7be 542c e73a 8783 a93e 2a25 e0bd
00000040: f543 b9be f0c3 143e ad25 09bf b7f5 6cbd
00000050: 5337 a43e dd53 f5be f856 053f 512d 9c3e
00000060: 5f9c cabd 433a cdbe 4a6b b43e 93f3 ff3d
00000070: 1e8b e53e fb6b cbbe 27da 093f 8a4a d53e
00000080: 264d d2be 8031 933d 3f59 97be a716 92be
00000090: 57ac cd3e 3050 d23e 1528 9cbd 59d5 72bd
000000a0: 1063 2fbe 3c96 023f c0fb e2bc aa24 6b3e
000000b0: d685 23be dac2 813e a186 ac3e eefc 1d3e
000000c0: d274 343e 8183 e73e 7472 e2be 38d7 ebbd
000000d0: 83f3 d33e 9568 c93d 0bfa 163c 2766 973d
000000e0: e3f9 d33c fc0e aa3e e5a3 bb3e ce04 783e
000000f0: 016d 8ebd 5910 acbe 438a a03e e8de 5cbd

gat2.bias f4 [16]
0.08070782 -0.031250846 0.06836504 0.06868779 0.011154155 0.04710716 0.0035569738 0.00928757
0.02228254 0.08401149 0.025026591 0.047375146 -0.0076970323 -0.0094709005 -0.0029103088 -0.00033319055
00000000: 244a a53d e300 00bd f802 8c3d 2fac 8c3d
00000010: ebbf 363c 70f3 403d 1e1c 693b e42a 183c
00000020: e089 b63c 370e ac3d 9104 cd3c 710c 423d
00000030: 6337 fcbb d62b 1bbc e1ba 3ebb 14b0 aeb9

gat2.lin.weight f4 [64, 64]
-0.10653581 0.05234858 -0.18537681 -0.28299856 -0.1921242 -0.13437909 -0.22313052 -0.09143729
-0.21904773 0.06546683 -0.15368758 0.45856178 -0.30792385 0.046157934 0.16280682 -0.022855168
0.059376203 -0.026586883 0.0782638 -0.07679562 -0.070741326 0.14078319 0.23323832 0.28876808
-0.2203451 -0.16046889 -0.11558646 -0.17721805 -0.00087270635 0.07604199 -0.23812328 0.39669997
-0.0967871 -0.31955793 -0.29079965 -0.21637708 -0.07059574 0.21776633 0.37727138 0.28203997
-0.35262352 0.019361302 -0.1762 -0.21981505 0.11839822 0.22402571 -0.16475073 0.34897605
0.26643938 0.14217044 -0.12981892 0.32940012 0.077946745 -0.0856326 0.26362914 -0.051193856
-0.16998443 0.1533538 0.15707904 0.02899054 -0.09548876 0.19084874 0.071723774 0.31774196
-0.20638405 0.16965596 0.14092466 0.29675215 0.093216315 0.058715466 -0.010503756 0.055203944
-0.00036446357 0.012258962 -0.05300638 -0.16270036 -0.10007279 0.22529906 -0.37208968 -0.0013950376
0.2555843 0.10590765 -0.13789985 0.20180956 -0.06460731 -0.13008402 0.11695133 -0.21423835
-0.002283841 -0.14850926 -0.003724134 -0.14616546 -0.024062455 -0.015605513 -0.061395552 -0.23302774
0.009392628 -0.19688329 0.20645441 0.060211368 -0.1884445 0.08443825 -0.03895127 0.05213003
-0.08756526 0.067751236 0.23456131 0.1984615 -0.12726752 -0.17073931 0.03862445 -0.17627679
0.22390951 -0.09910431 -0.0083687315 -0.39655644 0.06756413 0.28518522 -0.117026836 -0.044561744
-0.08049274 -0.02894985 -0.077493355 -0.06447502 0.083789594 0.11014941 -0.0724131 -0.09982704
-0.16142702 0.27174777 -0.21804452 0.013412974 -0.031861454 0.2042637 0.34512776 0.044949397
0.07807494 -0.20966022 0.11924316 -0.111806594 0.096474946 -0.060627155 0.17540257 0.1926325
0.056917954 -0.058475036 -0.23786911 0.3962894 0.10941751 -0.24239346 0.03410768 -0.011884205
0.23000017 -0.09486379 0.3209486 -0.020901753 -0.10931386 -0.23433778 0.113751 0.03404214
-0.10905182 0.21651827 -0.049873624 -0.08502587 0.056867763 -0.16178514 -0.33479705 -0.14983702
0.12696865 -0.08848494 0.2826251 -0.06817227 -0.14009672 -0.09957615 0.40096453 -0.060151227
-0.50656724 0.22425438 0.09763349 -0.07600301 -0.06396542 -0.13556968 0.094526924 -0.056460887
-0.19049582 -0.07706263 -0.18112373 -0.55242646 -0.106509455 -0.3267635 -0.02949825 -0.10121054
-0.0063822465 -0.024198288 -0.050133664 -0.27460113 -0.34727526 -0.050571695 0.049382914 0.0999346
0.06982065 0.29504156 0.017119056 0.434428 -0.092767775 -0.13766646 0.36368415 0.14252323
-0.16474845 -0.16433585 0.060889944 0.11784787 0.16467878 0.042124607 0.1811987 0.23811437
0.13186368 -0.13346063 -0.17254049 -0.14900325 0.15840732 -0.032394562 -0.010394143 0.4034042
0.030894432 0.03827457 -0.32146087 -0.23417321 0.10623184 0.18177718 -0.040332403 0.18784657
-0.1417635 -0.26359618 -0.40186334 -0.1285954 0.035187263 -0.06499743 -0.049806006 -0.06616184
0.037329644 0.28957093 0.14585473 0.10093366 0.40680566 -0.36099145 0.17564605 0.012370059
-0.3629974 0.40556687 -0.05942798 -0.043319944 0.2526485 -0.02837688 0.21337914 0.106182985
00000000: 722f dabd 776b 563d 6bd3 3dbe 30e5 90be
00000010: 35bc 44be ac9a 09be 547c 64be 7943 bbbd
00000020: 0c4e 60be 7913 863d 4760 1dbe 9cc8 ea3e
00000030: 32a8 9dbe 1a10 3d3d d5b6 263e c33a bbbc
00000040: 7634 733d bccc d9bc c548 a03d 0647 9dbd
00000050: d4e0 90bd 7829 103e 07d6 6e3e 69d9 933e
00000060: 25a2 61be f551 24be 98b8 ecbd a678 35be
00000070: 55c6 64ba e7bb 9b3d 97d6 73be 421c cb3e
00000080: 5138 c6bd 199d a3be b1e3 94be f491 5dbe
00000090: 8094 90bd 23fe 5e3e b729 c13e 8b67 903e
000000a0: 128b b4be 989b 9e3c c66d 34be 3217 61be
000000b0: c47a f23d ff66 653e 6ab4 28be fdac b23e
000000c0: be6a 883e 2195 113e 40ef 04be 22a7 a83e
000000d0: 8ba2 9f3d 2560 afbd 66fa 863e a6b0 51bd
000000e0: 6610 2ebe c708 1d3e 54d9 203e 927d ed3c
000000f0: 9c8f c3bd da6d 433e eae3 923d 13af a23e
00000100: 5756 53be 4bba 2d3e 8e4e 103e e6ef 973e
00000110: 32e8 be3d a17f 703d f217 2cbc 881d 623d
00000120: 7915 bfb9 d0d9 483c 381d 59bd ec9a 26be
00000130: f7f2 ccbd ccb4 663e 8a82 bebe b2d9 b6ba
00000140: f2db 823e 1ce6 d83d 9e35 0dbe 2aa7 4e3e
00000150: d650 84bd bf34 05be 2e84 ef3d 4c61 5bbe
00000160: 7eac 15bb d012 18be 9a10 74bb 66ac 15be
00000170: a01e c5bc 44ae 7fbc e779 7bbd d39e 6ebe
00000180: 8ae3 193c c69b 49be c968 533e 32a0 763d
00000190: 98f7 40be f6ed ac3d 5e8b 1fbd 4c86 553d
000001a0: 6a55 b3bd 29c1 8a3d d730 703e 7e39 4b3e
000001b0: 6b52 02be 49d6 2ebe ac34 1e3d e781 34be
000001c0: 8948 653e 33f7 cabd 011d 09bc 7209 cbbe
000001d0: 105f 8a3d cc03 923e c4ab efbd 6086 36bd
000001e0: 61d9 a4bd 3c28 edbc d6b4 9ebd 7b0b 84bd
000001f0: e199 ab3d 0496 e13d 524d 94bd 1f72 ccbd
00000200: 204d 25be 8622 8b3e 1047 5fbe 17c2 5b3c
00000210: 2881 02bd 812a 513e 96b4 b03e dc1c 383d
00000220: c1e5 9f3d 2bb1 56be c235 f43d dbfa e4bd
00000230: a894 c53d 2e54 78bd bb9c 333e 7441 453e
00000240: cd22 693d 8583 6fbd f693 73be 72e6 ca3e
00000250: 4a16 e03d fe35 78be 7fb4 0b3d f8b5 42bc
00000260: 2a85 6b3e f247 c2bd 6053 a43e 273a abbc
00000270: f2df dfbd 3ef6 6fbe 49f6 e83d c56f 0b3d
00000280: 9056 dfbd f7b6 5d3e 4948 4cbd 0b22 aebd
00000290: 2cee 683d 01ab 25be 856a abbe e06e 19be
000002a0: 1204 023e 9837 b5bd 3db4 903e e79d 8bbd
000002b0: 8475 0fbe 95ee cbbd 394b cd3e 2261 76bd
000002c0: 64ae 01bf f1a2 653e 11f4 c73d 77a7 9bbd
000002d0: 4d00 83bd c7d2 0abe 5597 c13d 8843 67bd
000002e0: 5611 43be 03d3 9dbd 8078 39be d26b 0dbf
000002f0: a121 dabd 8c4d a7be 50a6 f1bc 7947 cfbd
00000300: 2a22 d1bb 7d3b c6bc f558 4dbd 8598 8cbe
00000310: 10ce b1be 4424 4fbd bd45 4a3d 83aa cc3d
00000320: 21fe 8e3d b00f 973e 433d 8c3c 596d de3e
00000330: 08fd bdbd 70f8 0cbe cf34 ba3e 9cf1 113e
00000340: d1b3 28be a847 28be bc67 793d 395a f13d
00000350: 8ea1 283e da8a 2c3d 278c 393e 41d4 733e
00000360: 4607 073e e7a9 08be 74ae 30be 4f94 18be
00000370: 8735 223e 29b0 04bd 324c 2abc ff8a ce3e
00000380: 5216 fd3c ccc5 1c3d 8596 a4be 1acb 6fbe
00000390: 1490 d93d cc23 3a3e 9733 25bd da5a 403e
000003a0: 732a 11be 14f6 86be 08c1 cdbe 83ae 03be
000003b0: 8520 103d 5f1d 85bd 6201 4cbd dc7f 87bd
000003c0: f8e6 183d a442 943e f15a 153e 4fb6 ce3d
000003d0: d548 d03e dfd3 b8be 8fdc 333e caab 4a3c
000003e0: ccda b9be 76a6 cf3e c16a 73bd 4170 31bd
000003f0: 255b 813e a176 e8bc 1080 5a3e 7776 d93d

gat2.lin_edge.weight f4 [64, 2]
-0.22806723 0.24710773 0.25302273 0.2735219 -0.23226552 -0.28374428 0.01387283 -0.023161028
-0.03446207 0.18825212 -0.13294917 0.24362871 -0.29646567 0.26527128 0.26985812 -0.30036455
-0.18584196 0.051347204 -0.11708777 -0.27132016 0.25503895 -0.20509452 -0.17116897 -0.19427076
0.12395186 -0.16029148 -0.2605327 -0.24188763 -0.10374675 0.27917966 -0.16619149 0.02063352
-0.120233424 -0.1859628 0.09611218 -0.0615834 0.1696955 0.10179379 0.044856876 -0.1597908
0.020548802 -0.23435585 0.24039704 -0.012690343 -0.009706898 -0.19814013 0.10629528 0.11031385
0.052659806 -0.19043468 0.19014232 -0.0062141055 0.049554836 -0.24809487 0.24244744 0.24914616
0.048751693 -0.22415014 -0.019962177 -0.297898 -0.095884085 -0.28882396 -0.28519583 -0.026067303
-0.1350843 0.22972454 -0.21233062 0.2814395 -0.20776375 0.014551038 -0.13663329 -0.041115
-0.17740932 0.24113297 -0.18769823 -0.18717495 -0.14981778 -0.0886997 -0.069692165 -0.24946393
0.03084671 0.24966069 -0.1916662 -0.18679765 -0.2390357 -0.13351351 -0.100815386 0.06464851
-0.27527207 0.021455644 -0.040103637 -0.28327957 -0.058553014 0.15818062 0.1351651 0.25505373
-0.29113817 0.0075653447 0.2521921 0.2835203 -0.24808668 0.05533407 -0.29589507 -0.15627821
-0.26583886 -0.21167096 0.24608135 0.044384982 0.2572553 0.22522786 -0.26818702 -0.037324708
-0.044249047 -0.028207887 -0.22657895 0.20764409 -0.17776878 -0.059283767 -0.04590465 -0.038809657
0.11303009 -0.29099983 0.29363212 0.24546291 -0.16540876 -0.050205838 -0.094061814 0.27454612
00000000: 758a 69be cf09 7d3e 328c 813e 100b 8c3e
00000010: 03d7 6dbe ee46 91be de4a 633c 32bc bdbc
00000020: 1928 0dbd 2ac5 403e d423 08be ce79 793e
00000030: 59ca 97be a3d1 873e d82a 8a3e 62c9 99be
00000040: 5b4d 3ebe 7251 523d b6cb efbd 7aea 8abe
00000050: 7794 823e 4c04 52be eb46 2fbe eaee 46be
00000060: 79da fd3d 7323 24be 8b64 85be 64b1 77be
00000070: 2d79 d4bd a3f0 8e3e 1a2e 2abe a107 a93c
00000080: f13c f6bd 086d 3ebe 76d6 c43d e03e 7cbd
00000090: a8c4 2d3e 4379 d03d d8bb 373d 33a0 23be
000000a0: f655 a83c fbfa 6fbe a42a 763e 28eb 4fbc
000000b0: ae09 1fbc 3fe5 4abe 57b1 d93d 3aec e13d
000000c0: cfb1 573d 4f01 43be abb4 423e b29f cbbb
000000d0: 03fa 4a3d 950c 7ebe 2444 783e 2c20 7f3e
000000e0: dbaf 473d 9d87 65be b887 a3bc 1686 98be
000000f0: e05e c4bd bce0 93be 3005 92be 198b d5bc
00000100: 8a53 0abe e93c 6b3e 336d 59be d718 903e
00000110: 05c0 54be 7a67 6e3c 99e9 0bbe 3468 28bd
00000120: caaa 35be 90eb 763e f733 40be caaa 3fbe
00000130: d569 19be 30a8 b5bd c4ba 8ebd 7973 7fbe
00000140: 3db2 fc3c 0da7 7f3e 2544 44be e247 3fbe
00000150: c6c5 74be c4b7 08be 4c78 cebd 7066 843d
00000160: 76f0 8cbe bfc3 af3c b643 24bd 050a 91be
00000170: 49d5 6fbd 1afa 213e b868 0a3e 6796 823e
00000180: 1010 95be b6e6 f73b 531f 813e 9329 913e
00000190: 6f0a 7ebe faa5 623d 8f7f 97be 6507 20be
000001a0: 081c 88be 46c0 58be c0fc 7b3e 07cd 353d
000001b0: f7b6 833e 22a2 663e cf4f 89be cbe1 18bd
000001c0: 7d3e 35bd 3a14 e7bc 5004 68be a7a0 543e
000001d0: 0509 36be 89d3 72bd 8406 3cbd e0f6 1ebd
000001e0: 527c e73d eefd 94be f356 963e a15a 7b3e
000001f0: ea60 29be a3a4 4dbd 7ba3 c0bd 4f91 8c3e

action_head.weight f4 [4, 16]
0.046348717 0.07425372 0.10896885 0.08252101 0.09732487 -0.26928172 -0.24681604 -0.24735717
-0.23641317 0.041793674 0.077997886 0.096633635 0.035261776 -0.107433826 -0.26256433 -0.09152105
-0.31707475 0.042708788 0.043663494 -0.339838 -0.16910523 0.003011416 0.00984904 -0.12587295
-0.07440016 0.15727027 0.24004723 0.14214092 -0.04107304 -0.0051777842 0.19796263 0.102506414
0.26099226 -0.14580663 -0.28647316 0.01332355 0.14643718 -0.124782525 0.04450665 0.16551495
0.23723094 -0.21237913 0.07925732 -0.037408374 0.008503153 0.16172817 0.104777485 0.28687602
0.9624591 0.3773751 0.13312544 -1.2031473 1.4686819 -0.12590654 -0.7380229 -0.7703864
0.78151244 0.045119207 1.6989596 -0.6389459 -1.4867165 -1.6643158 -0.52951235 0.50623566
00000000: 27d8 3d3d 5612 983d 0f2b df3d c600 a93d
00000010: 4352 c73d 4bdf 89be 58bd 7cbe 334b 7dbe
00000020: 4b16 72be d82f 2b3d 5bbd 9f3d dbe7 c53d
00000030: a76e 103d 4406 dcbd d56e 86be 636f bbbd
00000040: 9f57 a2be 69ef 2e3d 7ed8 323d 3fff adbe
00000050: ec29 2dbe 2d5b 453b de5d 213c d7e4 00be
00000060: 1c5f 98bd 750b 213e f1ce 753e 648d 113e
00000070: 343c 28bd 67aa a9bb b7b6 4a3e e2ee d13d
00000080: c7a0 853e 554e 15be 9cac 92be 054b 5a3c
00000090: a1f3 153e fb8d ffbd 9b4c 363d c07c 293e
000000a0: abec 723e ea79 59be a951 a23d 8639 19bd
000000b0: cf50 0b3c 129c 253e 9495 d63d 6ae1 923e
000000c0: b863 763f 4f37 c13e 0952 083e bb00 9abf
000000d0: c5fd bb3f a5ed 00be 12ef 3cbf 0b38 45bf
000000e0: 3311 483f ebce 383d 8277 d93f f591 23bf
000000f0: ba4c bebf 4d08 d5bf 1f8e 07bf a998 013f

action_head.bias f4 [4]
-0.011441993 0.11464928 -0.14665057 -0.0045237946
00000000: 3277 3bbc 3ecd ea3d 912b 16be 573c 94bb
